…
I0421 05:56:56.204542  2596 net.cpp:294] The NetState phase (0) differed from the phase (1) specified by a rule in layer accuracy
I0421 05:56:56.204710  2596 net.cpp:51] Initializing net from parameters:
name: "StanfordCarsNet"
state {
  phase: TRAIN
  level: 0
  stage: ""
}
layer {
  name: "data"
  type: "ImageData"
  top: "data"
  top: "label"
  include {
    phase: TRAIN
  }
  transform_param {
    mirror: true
    crop_size: 227
    mean_file: "data/ilsvrc12/imagenet_mean.binaryproto"
  }
  image_data_param {
    source: "data/stanford_cars/train.txt"
    batch_size: 50
    new_height: 256
    new_width: 256
  }
}
layer {
  name: "conv1"
  type: "Convolution"
  bottom: "data"
  top: "conv1"
  param {
    lr_mult: 1
    decay_mult: 1
  }
  param {
    lr_mult: 2
    decay_mult: 0
  }
  convolution_param {
    num_output: 96
    kernel_size: 11
    stride: 4
    weight_filler {
      type: "gaussian"
      std: 0.01
    }
    bias_filler {
      type: "constant"
      value: 0
    }
  }
}
layer {
  name: "relu1"
  type: "ReLU"
  bottom: "conv1"
  top: "conv1"
}
layer {
  name: "pool1"
  type: "Pooling"
  bottom: "conv1"
  top: "pool1"
  pooling_param {
    pool: MAX
    kernel_size: 3
    stride: 2
  }
}
layer {
  name: "norm1"
  type: "LRN"
  bottom: "pool1"
  top: "norm1"
  lrn_param {
    local_size: 5
    alpha: 0.0001
    beta: 0.75
  }
}
layer {
  name: "conv2"
  type: "Convolution"
  bottom: "norm1"
  top: "conv2"
  param {
    lr_mult: 1
    decay_mult: 1
  }
  param {
    lr_mult: 2
    decay_mult: 0
  }
  convolution_param {
    num_output: 256
    pad: 2
    kernel_size: 5
    group: 2
    weight_filler {
      type: "gaussian"
      std: 0.01
    }
    bias_filler {
      type: "constant"
      value: 1
    }
  }
}
layer {
  name: "relu2"
  type: "ReLU"
  bottom: "conv2"
  top: "conv2"
}
layer {
  name: "pool2"
  type: "Pooling"
  bottom: "conv2"
  top: "pool2"
  pooling_param {
    pool: MAX
    kernel_size: 3
    stride: 2
  }
}
layer {
  name: "norm2"
  type: "LRN"
  bottom: "pool2"
  top: "norm2"
  lrn_param {
    local_size: 5
    alpha: 0.0001
    beta: 0.75
  }
}
layer {
  name: "conv3"
  type: "Convolution"
  bottom: "norm2"
  top: "conv3"
  param {
    lr_mult: 1
    decay_mult: 1
  }
  param {
    lr_mult: 2
    decay_mult: 0
  }
  convolution_param {
    num_output: 384
    pad: 1
    kernel_size: 3
    weight_filler {
      type: "gaussian"
      std: 0.01
    }
    bias_filler {
      type: "constant"
      value: 0
    }
  }
}
layer {
  name: "relu3"
  type: "ReLU"
  bottom: "conv3"
  top: "conv3"
}
layer {
  name: "conv4"
  type: "Convolution"
  bottom: "conv3"
  top: "conv4"
  param {
    lr_mult: 1
    decay_mult: 1
  }
  param {
    lr_mult: 2
    decay_mult: 0
  }
  convolution_param {
    num_output: 384
    pad: 1
    kernel_size: 3
    group: 2
    weight_filler {
      type: "gaussian"
      std: 0.01
    }
    bias_filler {
      type: "constant"
      value: 1
    }
  }
}
layer {
  name: "relu4"
  type: "ReLU"
  bottom: "conv4"
  top: "conv4"
}
layer {
  name: "conv5"
  type: "Convolution"
  bottom: "conv4"
  top: "conv5"
  param {
    lr_mult: 1
    decay_mult: 1
  }
  param {
    lr_mult: 2
    decay_mult: 0
  }
  convolution_param {
    num_output: 256
    pad: 1
    kernel_size: 3
    group: 2
    weight_filler {
      type: "gaussian"
      std: 0.01
    }
    bias_filler {
      type: "constant"
      value: 1
    }
  }
}
layer {
  name: "relu5"
  type: "ReLU"
  bottom: "conv5"
  top: "conv5"
}
layer {
  name: "pool5"
  type: "Pooling"
  bottom: "conv5"
  top: "pool5"
  pooling_param {
    pool: MAX
    kernel_size: 3
    stride: 2
  }
}
layer {
  name: "fc6"
  type: "InnerProduct"
  bottom: "pool5"
  top: "fc6"
  param {
    lr_mult: 1
    decay_mult: 1
  }
  param {
    lr_mult: 2
    decay_mult: 0
  }
  inner_product_param {
    num_output: 4096
    weight_filler {
      type: "gaussian"
      std: 0.005
    }
    bias_filler {
      type: "constant"
      value: 1
    }
  }
}
layer {
  name: "relu6"
  type: "ReLU"
  bottom: "fc6"
  top: "fc6"
}
layer {
  name: "drop6"
  type: "Dropout"
  bottom: "fc6"
  top: "fc6"
  dropout_param {
    dropout_ratio: 0.5
  }
}
layer {
  name: "fc7"
  type: "InnerProduct"
  bottom: "fc6"
  top: "fc7"
  param {
    lr_mult: 1
    decay_mult: 1
  }
  param {
    lr_mult: 2
    decay_mult: 0
  }
  inner_product_param {
    num_output: 4096
    weight_filler {
      type: "gaussian"
      std: 0.005
    }
    bias_filler {
      type: "constant"
      value: 1
    }
  }
}
layer {
  name: "relu7"
  type: "ReLU"
  bottom: "fc7"
  top: "fc7"
}
layer {
  name: "drop7"
  type: "Dropout"
  bottom: "fc7"
  top: "fc7"
  dropout_param {
    dropout_ratio: 0.8
  }
}
layer {
  name: "fc8_stanford_cars"
  type: "InnerProduct"
  bottom: "fc7"
  top: "fc8_stanford_cars"
  param {
    lr_mult: 10
    decay_mult: 1
  }
  param {
    lr_mult: 20
    decay_mult: 0
  }
  inner_product_param {
    num_output: 196
    weight_filler {
      type: "gaussian"
      std: 0.01
    }
    bias_filler {
      type: "constant"
      value: 0
    }
  }
}
layer {
  name: "loss"
  type: "SoftmaxWithLoss"
  bottom: "fc8_stanford_cars"
  bottom: "label"
  top: "loss"
}
I0421 05:56:56.204898  2596 layer_factory.hpp:77] Creating layer data
I0421 05:56:56.204928  2596 net.cpp:84] Creating Layer data
I0421 05:56:56.204937  2596 net.cpp:380] data -> data
I0421 05:56:56.204958  2596 net.cpp:380] data -> label
I0421 05:56:56.204974  2596 data_transformer.cpp:25] Loading mean file from: data/ilsvrc12/imagenet_mean.binaryproto
I0421 05:56:56.207021  2596 image_data_layer.cpp:38] Opening file data/stanford_cars/train.txt
I0421 05:56:56.209101  2596 image_data_layer.cpp:63] A total of 6500 images.
I0421 05:56:56.212776  2596 image_data_layer.cpp:90] output data size: 50,3,227,227
I0421 05:56:56.262068  2596 net.cpp:122] Setting up data
I0421 05:56:56.262100  2596 net.cpp:129] Top shape: 50 3 227 227 (7729350)
I0421 05:56:56.262107  2596 net.cpp:129] Top shape: 50 (50)
I0421 05:56:56.262110  2596 net.cpp:137] Memory required for data: 30917600
I0421 05:56:56.262126  2596 layer_factory.hpp:77] Creating layer conv1
I0421 05:56:56.262157  2596 net.cpp:84] Creating Layer conv1
I0421 05:56:56.262167  2596 net.cpp:406] conv1 <- data
I0421 05:56:56.262181  2596 net.cpp:380] conv1 -> conv1
I0421 05:56:56.542559  2596 net.cpp:122] Setting up conv1
I0421 05:56:56.542599  2596 net.cpp:129] Top shape: 50 96 55 55 (14520000)
I0421 05:56:56.542604  2596 net.cpp:137] Memory required for data: 88997600
I0421 05:56:56.542639  2596 layer_factory.hpp:77] Creating layer relu1
I0421 05:56:56.542654  2596 net.cpp:84] Creating Layer relu1
I0421 05:56:56.542659  2596 net.cpp:406] relu1 <- conv1
I0421 05:56:56.542667  2596 net.cpp:367] relu1 -> conv1 (in-place)
I0421 05:56:56.542978  2596 net.cpp:122] Setting up relu1
I0421 05:56:56.542996  2596 net.cpp:129] Top shape: 50 96 55 55 (14520000)
I0421 05:56:56.543000  2596 net.cpp:137] Memory required for data: 147077600
I0421 05:56:56.543004  2596 layer_factory.hpp:77] Creating layer pool1
I0421 05:56:56.543022  2596 net.cpp:84] Creating Layer pool1
I0421 05:56:56.543027  2596 net.cpp:406] pool1 <- conv1
I0421 05:56:56.543035  2596 net.cpp:380] pool1 -> pool1
I0421 05:56:56.543118  2596 net.cpp:122] Setting up pool1
I0421 05:56:56.543135  2596 net.cpp:129] Top shape: 50 96 27 27 (3499200)
I0421 05:56:56.543139  2596 net.cpp:137] Memory required for data: 161074400
I0421 05:56:56.543172  2596 layer_factory.hpp:77] Creating layer norm1
I0421 05:56:56.543192  2596 net.cpp:84] Creating Layer norm1
I0421 05:56:56.543197  2596 net.cpp:406] norm1 <- pool1
I0421 05:56:56.543205  2596 net.cpp:380] norm1 -> norm1
I0421 05:56:56.543354  2596 net.cpp:122] Setting up norm1
I0421 05:56:56.543365  2596 net.cpp:129] Top shape: 50 96 27 27 (3499200)
I0421 05:56:56.543368  2596 net.cpp:137] Memory required for data: 175071200
I0421 05:56:56.543372  2596 layer_factory.hpp:77] Creating layer conv2
I0421 05:56:56.543385  2596 net.cpp:84] Creating Layer conv2
I0421 05:56:56.543390  2596 net.cpp:406] conv2 <- norm1
I0421 05:56:56.543398  2596 net.cpp:380] conv2 -> conv2
I0421 05:56:56.547830  2596 net.cpp:122] Setting up conv2
I0421 05:56:56.547852  2596 net.cpp:129] Top shape: 50 256 27 27 (9331200)
I0421 05:56:56.547871  2596 net.cpp:137] Memory required for data: 212396000
I0421 05:56:56.547883  2596 layer_factory.hpp:77] Creating layer relu2
I0421 05:56:56.547894  2596 net.cpp:84] Creating Layer relu2
I0421 05:56:56.547899  2596 net.cpp:406] relu2 <- conv2
I0421 05:56:56.547905  2596 net.cpp:367] relu2 -> conv2 (in-place)
I0421 05:56:56.548179  2596 net.cpp:122] Setting up relu2
I0421 05:56:56.548190  2596 net.cpp:129] Top shape: 50 256 27 27 (9331200)
I0421 05:56:56.548203  2596 net.cpp:137] Memory required for data: 249720800
I0421 05:56:56.548208  2596 layer_factory.hpp:77] Creating layer pool2
I0421 05:56:56.548215  2596 net.cpp:84] Creating Layer pool2
I0421 05:56:56.548220  2596 net.cpp:406] pool2 <- conv2
I0421 05:56:56.548228  2596 net.cpp:380] pool2 -> pool2
I0421 05:56:56.548271  2596 net.cpp:122] Setting up pool2
I0421 05:56:56.548279  2596 net.cpp:129] Top shape: 50 256 13 13 (2163200)
I0421 05:56:56.548291  2596 net.cpp:137] Memory required for data: 258373600
I0421 05:56:56.548296  2596 layer_factory.hpp:77] Creating layer norm2
I0421 05:56:56.548305  2596 net.cpp:84] Creating Layer norm2
I0421 05:56:56.548310  2596 net.cpp:406] norm2 <- pool2
I0421 05:56:56.548316  2596 net.cpp:380] norm2 -> norm2
I0421 05:56:56.548463  2596 net.cpp:122] Setting up norm2
I0421 05:56:56.548473  2596 net.cpp:129] Top shape: 50 256 13 13 (2163200)
I0421 05:56:56.548485  2596 net.cpp:137] Memory required for data: 267026400
I0421 05:56:56.548491  2596 layer_factory.hpp:77] Creating layer conv3
I0421 05:56:56.548501  2596 net.cpp:84] Creating Layer conv3
I0421 05:56:56.548506  2596 net.cpp:406] conv3 <- norm2
I0421 05:56:56.548516  2596 net.cpp:380] conv3 -> conv3
I0421 05:56:56.557421  2596 net.cpp:122] Setting up conv3
I0421 05:56:56.557456  2596 net.cpp:129] Top shape: 50 384 13 13 (3244800)
I0421 05:56:56.557462  2596 net.cpp:137] Memory required for data: 280005600
I0421 05:56:56.557478  2596 layer_factory.hpp:77] Creating layer relu3
I0421 05:56:56.557507  2596 net.cpp:84] Creating Layer relu3
I0421 05:56:56.557512  2596 net.cpp:406] relu3 <- conv3
I0421 05:56:56.557523  2596 net.cpp:367] relu3 -> conv3 (in-place)
I0421 05:56:56.557831  2596 net.cpp:122] Setting up relu3
I0421 05:56:56.557842  2596 net.cpp:129] Top shape: 50 384 13 13 (3244800)
I0421 05:56:56.557853  2596 net.cpp:137] Memory required for data: 292984800
I0421 05:56:56.557857  2596 layer_factory.hpp:77] Creating layer conv4
I0421 05:56:56.557871  2596 net.cpp:84] Creating Layer conv4
I0421 05:56:56.557876  2596 net.cpp:406] conv4 <- conv3
I0421 05:56:56.557901  2596 net.cpp:380] conv4 -> conv4
I0421 05:56:56.565417  2596 net.cpp:122] Setting up conv4
I0421 05:56:56.565450  2596 net.cpp:129] Top shape: 50 384 13 13 (3244800)
I0421 05:56:56.565474  2596 net.cpp:137] Memory required for data: 305964000
I0421 05:56:56.565485  2596 layer_factory.hpp:77] Creating layer relu4
I0421 05:56:56.565497  2596 net.cpp:84] Creating Layer relu4
I0421 05:56:56.565503  2596 net.cpp:406] relu4 <- conv4
I0421 05:56:56.565512  2596 net.cpp:367] relu4 -> conv4 (in-place)
I0421 05:56:56.565796  2596 net.cpp:122] Setting up relu4
I0421 05:56:56.565807  2596 net.cpp:129] Top shape: 50 384 13 13 (3244800)
I0421 05:56:56.565841  2596 net.cpp:137] Memory required for data: 318943200
I0421 05:56:56.565846  2596 layer_factory.hpp:77] Creating layer conv5
I0421 05:56:56.565860  2596 net.cpp:84] Creating Layer conv5
I0421 05:56:56.565865  2596 net.cpp:406] conv5 <- conv4
I0421 05:56:56.565873  2596 net.cpp:380] conv5 -> conv5
I0421 05:56:56.572441  2596 net.cpp:122] Setting up conv5
I0421 05:56:56.572477  2596 net.cpp:129] Top shape: 50 256 13 13 (2163200)
I0421 05:56:56.572481  2596 net.cpp:137] Memory required for data: 327596000
I0421 05:56:56.572506  2596 layer_factory.hpp:77] Creating layer relu5
I0421 05:56:56.572518  2596 net.cpp:84] Creating Layer relu5
I0421 05:56:56.572523  2596 net.cpp:406] relu5 <- conv5
I0421 05:56:56.572531  2596 net.cpp:367] relu5 -> conv5 (in-place)
I0421 05:56:56.572674  2596 net.cpp:122] Setting up relu5
I0421 05:56:56.572685  2596 net.cpp:129] Top shape: 50 256 13 13 (2163200)
I0421 05:56:56.572688  2596 net.cpp:137] Memory required for data: 336248800
I0421 05:56:56.572693  2596 layer_factory.hpp:77] Creating layer pool5
I0421 05:56:56.572702  2596 net.cpp:84] Creating Layer pool5
I0421 05:56:56.572707  2596 net.cpp:406] pool5 <- conv5
I0421 05:56:56.572715  2596 net.cpp:380] pool5 -> pool5
I0421 05:56:56.572757  2596 net.cpp:122] Setting up pool5
I0421 05:56:56.572764  2596 net.cpp:129] Top shape: 50 256 6 6 (460800)
I0421 05:56:56.572769  2596 net.cpp:137] Memory required for data: 338092000
I0421 05:56:56.572773  2596 layer_factory.hpp:77] Creating layer fc6
I0421 05:56:56.572787  2596 net.cpp:84] Creating Layer fc6
I0421 05:56:56.572791  2596 net.cpp:406] fc6 <- pool5
I0421 05:56:56.572798  2596 net.cpp:380] fc6 -> fc6
I0421 05:56:56.903980  2596 net.cpp:122] Setting up fc6
I0421 05:56:56.904014  2596 net.cpp:129] Top shape: 50 4096 (204800)
I0421 05:56:56.904019  2596 net.cpp:137] Memory required for data: 338911200
I0421 05:56:56.904039  2596 layer_factory.hpp:77] Creating layer relu6
I0421 05:56:56.904053  2596 net.cpp:84] Creating Layer relu6
I0421 05:56:56.904058  2596 net.cpp:406] relu6 <- fc6
I0421 05:56:56.904075  2596 net.cpp:367] relu6 -> fc6 (in-place)
I0421 05:56:56.904506  2596 net.cpp:122] Setting up relu6
I0421 05:56:56.904525  2596 net.cpp:129] Top shape: 50 4096 (204800)
I0421 05:56:56.904528  2596 net.cpp:137] Memory required for data: 339730400
I0421 05:56:56.904532  2596 layer_factory.hpp:77] Creating layer drop6
I0421 05:56:56.904549  2596 net.cpp:84] Creating Layer drop6
I0421 05:56:56.904554  2596 net.cpp:406] drop6 <- fc6
I0421 05:56:56.904562  2596 net.cpp:367] drop6 -> fc6 (in-place)
I0421 05:56:56.904628  2596 net.cpp:122] Setting up drop6
I0421 05:56:56.904635  2596 net.cpp:129] Top shape: 50 4096 (204800)
I0421 05:56:56.904639  2596 net.cpp:137] Memory required for data: 340549600
I0421 05:56:56.904650  2596 layer_factory.hpp:77] Creating layer fc7
I0421 05:56:56.904670  2596 net.cpp:84] Creating Layer fc7
I0421 05:56:56.904675  2596 net.cpp:406] fc7 <- fc6
I0421 05:56:56.904698  2596 net.cpp:380] fc7 -> fc7
I0421 05:56:57.053031  2596 net.cpp:122] Setting up fc7
I0421 05:56:57.053059  2596 net.cpp:129] Top shape: 50 4096 (204800)
I0421 05:56:57.053063  2596 net.cpp:137] Memory required for data: 341368800
I0421 05:56:57.053074  2596 layer_factory.hpp:77] Creating layer relu7
I0421 05:56:57.053093  2596 net.cpp:84] Creating Layer relu7
I0421 05:56:57.053099  2596 net.cpp:406] relu7 <- fc7
I0421 05:56:57.053124  2596 net.cpp:367] relu7 -> fc7 (in-place)
I0421 05:56:57.053318  2596 net.cpp:122] Setting up relu7
I0421 05:56:57.053328  2596 net.cpp:129] Top shape: 50 4096 (204800)
I0421 05:56:57.053331  2596 net.cpp:137] Memory required for data: 342188000
I0421 05:56:57.053335  2596 layer_factory.hpp:77] Creating layer drop7
I0421 05:56:57.053344  2596 net.cpp:84] Creating Layer drop7
I0421 05:56:57.053350  2596 net.cpp:406] drop7 <- fc7
I0421 05:56:57.053371  2596 net.cpp:367] drop7 -> fc7 (in-place)
I0421 05:56:57.053407  2596 net.cpp:122] Setting up drop7
I0421 05:56:57.053414  2596 net.cpp:129] Top shape: 50 4096 (204800)
I0421 05:56:57.053418  2596 net.cpp:137] Memory required for data: 343007200
I0421 05:56:57.053445  2596 layer_factory.hpp:77] Creating layer fc8_stanford_cars
I0421 05:56:57.053455  2596 net.cpp:84] Creating Layer fc8_stanford_cars
I0421 05:56:57.053468  2596 net.cpp:406] fc8_stanford_cars <- fc7
I0421 05:56:57.053483  2596 net.cpp:380] fc8_stanford_cars -> fc8_stanford_cars
I0421 05:56:57.060677  2596 net.cpp:122] Setting up fc8_stanford_cars
I0421 05:56:57.060708  2596 net.cpp:129] Top shape: 50 196 (9800)
I0421 05:56:57.060712  2596 net.cpp:137] Memory required for data: 343046400
I0421 05:56:57.060734  2596 layer_factory.hpp:77] Creating layer loss
I0421 05:56:57.060746  2596 net.cpp:84] Creating Layer loss
I0421 05:56:57.060752  2596 net.cpp:406] loss <- fc8_stanford_cars
I0421 05:56:57.060760  2596 net.cpp:406] loss <- label
I0421 05:56:57.060770  2596 net.cpp:380] loss -> loss
I0421 05:56:57.060788  2596 layer_factory.hpp:77] Creating layer loss
…
I0421 05:56:57.062103  2596 net.cpp:294] The NetState phase (1) differed from the phase (0) specified by a rule in layer data
I0421 05:56:57.062261  2596 net.cpp:51] Initializing net from parameters:
name: "StanfordCarsNet"
state {
  phase: TEST
}
layer {
  name: "data"
  type: "ImageData"
  top: "data"
  top: "label"
  include {
    phase: TEST
  }
  transform_param {
    mirror: false
    crop_size: 227
    mean_file: "data/ilsvrc12/imagenet_mean.binaryproto"
  }
  image_data_param {
    source: "data/stanford_cars/test.txt"
    batch_size: 50
    new_height: 256
    new_width: 256
  }
}
layer {
  name: "conv1"
  type: "Convolution"
  bottom: "data"
  top: "conv1"
  param {
    lr_mult: 1
    decay_mult: 1
  }
  param {
    lr_mult: 2
    decay_mult: 0
  }
  convolution_param {
    num_output: 96
    kernel_size: 11
    stride: 4
    weight_filler {
      type: "gaussian"
      std: 0.01
    }
    bias_filler {
      type: "constant"
      value: 0
    }
  }
}
layer {
  name: "relu1"
  type: "ReLU"
  bottom: "conv1"
  top: "conv1"
}
layer {
  name: "pool1"
  type: "Pooling"
  bottom: "conv1"
  top: "pool1"
  pooling_param {
    pool: MAX
    kernel_size: 3
    stride: 2
  }
}
layer {
  name: "norm1"
  type: "LRN"
  bottom: "pool1"
  top: "norm1"
  lrn_param {
    local_size: 5
    alpha: 0.0001
    beta: 0.75
  }
}
layer {
  name: "conv2"
  type: "Convolution"
  bottom: "norm1"
  top: "conv2"
  param {
    lr_mult: 1
    decay_mult: 1
  }
  param {
    lr_mult: 2
    decay_mult: 0
  }
  convolution_param {
    num_output: 256
    pad: 2
    kernel_size: 5
    group: 2
    weight_filler {
      type: "gaussian"
      std: 0.01
    }
    bias_filler {
      type: "constant"
      value: 1
    }
  }
}
layer {
  name: "relu2"
  type: "ReLU"
  bottom: "conv2"
  top: "conv2"
}
layer {
  name: "pool2"
  type: "Pooling"
  bottom: "conv2"
  top: "pool2"
  pooling_param {
    pool: MAX
    kernel_size: 3
    stride: 2
  }
}
layer {
  name: "norm2"
  type: "LRN"
  bottom: "pool2"
  top: "norm2"
  lrn_param {
    local_size: 5
    alpha: 0.0001
    beta: 0.75
  }
}
layer {
  name: "conv3"
  type: "Convolution"
  bottom: "norm2"
  top: "conv3"
  param {
    lr_mult: 1
    decay_mult: 1
  }
  param {
    lr_mult: 2
    decay_mult: 0
  }
  convolution_param {
    num_output: 384
    pad: 1
    kernel_size: 3
    weight_filler {
      type: "gaussian"
      std: 0.01
    }
    bias_filler {
      type: "constant"
      value: 0
    }
  }
}
layer {
  name: "relu3"
  type: "ReLU"
  bottom: "conv3"
  top: "conv3"
}
layer {
  name: "conv4"
  type: "Convolution"
  bottom: "conv3"
  top: "conv4"
  param {
    lr_mult: 1
    decay_mult: 1
  }
  param {
    lr_mult: 2
    decay_mult: 0
  }
  convolution_param {
    num_output: 384
    pad: 1
    kernel_size: 3
    group: 2
    weight_filler {
      type: "gaussian"
      std: 0.01
    }
    bias_filler {
      type: "constant"
      value: 1
    }
  }
}
layer {
  name: "relu4"
  type: "ReLU"
  bottom: "conv4"
  top: "conv4"
}
layer {
  name: "conv5"
  type: "Convolution"
  bottom: "conv4"
  top: "conv5"
  param {
    lr_mult: 1
    decay_mult: 1
  }
  param {
    lr_mult: 2
    decay_mult: 0
  }
  convolution_param {
    num_output: 256
    pad: 1
    kernel_size: 3
    group: 2
    weight_filler {
      type: "gaussian"
      std: 0.01
    }
    bias_filler {
      type: "constant"
      value: 1
    }
  }
}
layer {
  name: "relu5"
  type: "ReLU"
  bottom: "conv5"
  top: "conv5"
}
layer {
  name: "pool5"
  type: "Pooling"
  bottom: "conv5"
  top: "pool5"
  pooling_param {
    pool: MAX
    kernel_size: 3
    stride: 2
  }
}
layer {
  name: "fc6"
  type: "InnerProduct"
  bottom: "pool5"
  top: "fc6"
  param {
    lr_mult: 1
    decay_mult: 1
  }
  param {
    lr_mult: 2
    decay_mult: 0
  }
  inner_product_param {
    num_output: 4096
    weight_filler {
      type: "gaussian"
      std: 0.005
    }
    bias_filler {
      type: "constant"
      value: 1
    }
  }
}
layer {
  name: "relu6"
  type: "ReLU"
  bottom: "fc6"
  top: "fc6"
}
layer {
  name: "drop6"
  type: "Dropout"
  bottom: "fc6"
  top: "fc6"
  dropout_param {
    dropout_ratio: 0.5
  }
}
layer {
  name: "fc7"
  type: "InnerProduct"
  bottom: "fc6"
  top: "fc7"
  param {
    lr_mult: 1
    decay_mult: 1
  }
  param {
    lr_mult: 2
    decay_mult: 0
  }
  inner_product_param {
    num_output: 4096
    weight_filler {
      type: "gaussian"
      std: 0.005
    }
    bias_filler {
      type: "constant"
      value: 1
    }
  }
}
layer {
  name: "relu7"
  type: "ReLU"
  bottom: "fc7"
  top: "fc7"
}
layer {
  name: "drop7"
  type: "Dropout"
  bottom: "fc7"
  top: "fc7"
  dropout_param {
    dropout_ratio: 0.8
  }
}
layer {
  name: "fc8_stanford_cars"
  type: "InnerProduct"
  bottom: "fc7"
  top: "fc8_stanford_cars"
  param {
    lr_mult: 10
    decay_mult: 1
  }
  param {
    lr_mult: 20
    decay_mult: 0
  }
  inner_product_param {
    num_output: 196
    weight_filler {
      type: "gaussian"
      std: 0.01
    }
    bias_filler {
      type: "constant"
      value: 0
    }
  }
}
layer {
  name: "accuracy"
  type: "Accuracy"
  bottom: "fc8_stanford_cars"
  bottom: "label"
  top: "accuracy"
  include {
    phase: TEST
  }
}
layer {
  name: "loss"
  type: "SoftmaxWithLoss"
  bottom: "fc8_stanford_cars"
  bottom: "label"
  top: "loss"
}
I0421 05:56:57.062461  2596 layer_factory.hpp:77] Creating layer data
I0421 05:56:57.062476  2596 net.cpp:84] Creating Layer data
I0421 05:56:57.062484  2596 net.cpp:380] data -> data
I0421 05:56:57.062494  2596 net.cpp:380] data -> label
I0421 05:56:57.062501  2596 data_transformer.cpp:25] Loading mean file from: data/ilsvrc12/imagenet_mean.binaryproto
I0421 05:56:57.063863  2596 image_data_layer.cpp:38] Opening file data/stanford_cars/test.txt
I0421 05:56:57.064345  2596 image_data_layer.cpp:63] A total of 1644 images.
I0421 05:56:57.076594  2596 image_data_layer.cpp:90] output data size: 50,3,227,227
I0421 05:56:57.125669  2596 net.cpp:122] Setting up data
I0421 05:56:57.125712  2596 net.cpp:129] Top shape: 50 3 227 227 (7729350)
I0421 05:56:57.125720  2596 net.cpp:129] Top shape: 50 (50)
I0421 05:56:57.125725  2596 net.cpp:137] Memory required for data: 30917600
I0421 05:56:57.125732  2596 layer_factory.hpp:77] Creating layer label_data_1_split
I0421 05:56:57.125746  2596 net.cpp:84] Creating Layer label_data_1_split
I0421 05:56:57.125752  2596 net.cpp:406] label_data_1_split <- label
I0421 05:56:57.125761  2596 net.cpp:380] label_data_1_split -> label_data_1_split_0
I0421 05:56:57.125772  2596 net.cpp:380] label_data_1_split -> label_data_1_split_1
I0421 05:56:57.125856  2596 net.cpp:122] Setting up label_data_1_split
I0421 05:56:57.125876  2596 net.cpp:129] Top shape: 50 (50)
I0421 05:56:57.125882  2596 net.cpp:129] Top shape: 50 (50)
I0421 05:56:57.125886  2596 net.cpp:137] Memory required for data: 30918000
I0421 05:56:57.125891  2596 layer_factory.hpp:77] Creating layer conv1
I0421 05:56:57.125905  2596 net.cpp:84] Creating Layer conv1
I0421 05:56:57.125910  2596 net.cpp:406] conv1 <- data
I0421 05:56:57.125916  2596 net.cpp:380] conv1 -> conv1
I0421 05:56:57.127172  2596 net.cpp:122] Setting up conv1
I0421 05:56:57.127199  2596 net.cpp:129] Top shape: 50 96 55 55 (14520000)
I0421 05:56:57.127203  2596 net.cpp:137] Memory required for data: 88998000
I0421 05:56:57.127216  2596 layer_factory.hpp:77] Creating layer relu1
I0421 05:56:57.127225  2596 net.cpp:84] Creating Layer relu1
I0421 05:56:57.127231  2596 net.cpp:406] relu1 <- conv1
I0421 05:56:57.127238  2596 net.cpp:367] relu1 -> conv1 (in-place)
I0421 05:56:57.127523  2596 net.cpp:122] Setting up relu1
I0421 05:56:57.127542  2596 net.cpp:129] Top shape: 50 96 55 55 (14520000)
I0421 05:56:57.127545  2596 net.cpp:137] Memory required for data: 147078000
I0421 05:56:57.127549  2596 layer_factory.hpp:77] Creating layer pool1
I0421 05:56:57.127559  2596 net.cpp:84] Creating Layer pool1
I0421 05:56:57.127564  2596 net.cpp:406] pool1 <- conv1
I0421 05:56:57.127571  2596 net.cpp:380] pool1 -> pool1
I0421 05:56:57.127619  2596 net.cpp:122] Setting up pool1
I0421 05:56:57.127626  2596 net.cpp:129] Top shape: 50 96 27 27 (3499200)
I0421 05:56:57.127638  2596 net.cpp:137] Memory required for data: 161074800
I0421 05:56:57.127641  2596 layer_factory.hpp:77] Creating layer norm1
I0421 05:56:57.127650  2596 net.cpp:84] Creating Layer norm1
I0421 05:56:57.127655  2596 net.cpp:406] norm1 <- pool1
I0421 05:56:57.127660  2596 net.cpp:380] norm1 -> norm1
I0421 05:56:57.127812  2596 net.cpp:122] Setting up norm1
I0421 05:56:57.127830  2596 net.cpp:129] Top shape: 50 96 27 27 (3499200)
I0421 05:56:57.127833  2596 net.cpp:137] Memory required for data: 175071600
I0421 05:56:57.127837  2596 layer_factory.hpp:77] Creating layer conv2
I0421 05:56:57.127846  2596 net.cpp:84] Creating Layer conv2
I0421 05:56:57.127852  2596 net.cpp:406] conv2 <- norm1
I0421 05:56:57.127859  2596 net.cpp:380] conv2 -> conv2
I0421 05:56:57.132354  2596 net.cpp:122] Setting up conv2
I0421 05:56:57.132421  2596 net.cpp:129] Top shape: 50 256 27 27 (9331200)
I0421 05:56:57.132428  2596 net.cpp:137] Memory required for data: 212396400
I0421 05:56:57.132444  2596 layer_factory.hpp:77] Creating layer relu2
I0421 05:56:57.132457  2596 net.cpp:84] Creating Layer relu2
I0421 05:56:57.132462  2596 net.cpp:406] relu2 <- conv2
I0421 05:56:57.132470  2596 net.cpp:367] relu2 -> conv2 (in-place)
I0421 05:56:57.132757  2596 net.cpp:122] Setting up relu2
I0421 05:56:57.132776  2596 net.cpp:129] Top shape: 50 256 27 27 (9331200)
I0421 05:56:57.132781  2596 net.cpp:137] Memory required for data: 249721200
I0421 05:56:57.132784  2596 layer_factory.hpp:77] Creating layer pool2
I0421 05:56:57.132796  2596 net.cpp:84] Creating Layer pool2
I0421 05:56:57.132800  2596 net.cpp:406] pool2 <- conv2
I0421 05:56:57.132807  2596 net.cpp:380] pool2 -> pool2
I0421 05:56:57.132858  2596 net.cpp:122] Setting up pool2
I0421 05:56:57.132875  2596 net.cpp:129] Top shape: 50 256 13 13 (2163200)
I0421 05:56:57.132879  2596 net.cpp:137] Memory required for data: 258374000
I0421 05:56:57.132882  2596 layer_factory.hpp:77] Creating layer norm2
I0421 05:56:57.132891  2596 net.cpp:84] Creating Layer norm2
I0421 05:56:57.132896  2596 net.cpp:406] norm2 <- pool2
I0421 05:56:57.132903  2596 net.cpp:380] norm2 -> norm2
I0421 05:56:57.133204  2596 net.cpp:122] Setting up norm2
I0421 05:56:57.133224  2596 net.cpp:129] Top shape: 50 256 13 13 (2163200)
I0421 05:56:57.133227  2596 net.cpp:137] Memory required for data: 267026800
I0421 05:56:57.133231  2596 layer_factory.hpp:77] Creating layer conv3
I0421 05:56:57.133244  2596 net.cpp:84] Creating Layer conv3
I0421 05:56:57.133249  2596 net.cpp:406] conv3 <- norm2
I0421 05:56:57.133256  2596 net.cpp:380] conv3 -> conv3
I0421 05:56:57.142844  2596 net.cpp:122] Setting up conv3
I0421 05:56:57.142881  2596 net.cpp:129] Top shape: 50 384 13 13 (3244800)
I0421 05:56:57.142889  2596 net.cpp:137] Memory required for data: 280006000
I0421 05:56:57.142904  2596 layer_factory.hpp:77] Creating layer relu3
I0421 05:56:57.142915  2596 net.cpp:84] Creating Layer relu3
I0421 05:56:57.142921  2596 net.cpp:406] relu3 <- conv3
I0421 05:56:57.142930  2596 net.cpp:367] relu3 -> conv3 (in-place)
I0421 05:56:57.143064  2596 net.cpp:122] Setting up relu3
I0421 05:56:57.143081  2596 net.cpp:129] Top shape: 50 384 13 13 (3244800)
I0421 05:56:57.143085  2596 net.cpp:137] Memory required for data: 292985200
I0421 05:56:57.143090  2596 layer_factory.hpp:77] Creating layer conv4
I0421 05:56:57.143102  2596 net.cpp:84] Creating Layer conv4
I0421 05:56:57.143108  2596 net.cpp:406] conv4 <- conv3
I0421 05:56:57.143115  2596 net.cpp:380] conv4 -> conv4
I0421 05:56:57.150951  2596 net.cpp:122] Setting up conv4
I0421 05:56:57.150993  2596 net.cpp:129] Top shape: 50 384 13 13 (3244800)
I0421 05:56:57.151000  2596 net.cpp:137] Memory required for data: 305964400
I0421 05:56:57.151013  2596 layer_factory.hpp:77] Creating layer relu4
I0421 05:56:57.151026  2596 net.cpp:84] Creating Layer relu4
I0421 05:56:57.151031  2596 net.cpp:406] relu4 <- conv4
I0421 05:56:57.151041  2596 net.cpp:367] relu4 -> conv4 (in-place)
I0421 05:56:57.151324  2596 net.cpp:122] Setting up relu4
I0421 05:56:57.151342  2596 net.cpp:129] Top shape: 50 384 13 13 (3244800)
I0421 05:56:57.151346  2596 net.cpp:137] Memory required for data: 318943600
I0421 05:56:57.151350  2596 layer_factory.hpp:77] Creating layer conv5
I0421 05:56:57.151365  2596 net.cpp:84] Creating Layer conv5
I0421 05:56:57.151370  2596 net.cpp:406] conv5 <- conv4
I0421 05:56:57.151376  2596 net.cpp:380] conv5 -> conv5
I0421 05:56:57.157263  2596 net.cpp:122] Setting up conv5
I0421 05:56:57.157289  2596 net.cpp:129] Top shape: 50 256 13 13 (2163200)
I0421 05:56:57.157295  2596 net.cpp:137] Memory required for data: 327596400
I0421 05:56:57.157310  2596 layer_factory.hpp:77] Creating layer relu5
I0421 05:56:57.157321  2596 net.cpp:84] Creating Layer relu5
I0421 05:56:57.157327  2596 net.cpp:406] relu5 <- conv5
I0421 05:56:57.157336  2596 net.cpp:367] relu5 -> conv5 (in-place)
I0421 05:56:57.157469  2596 net.cpp:122] Setting up relu5
I0421 05:56:57.157501  2596 net.cpp:129] Top shape: 50 256 13 13 (2163200)
I0421 05:56:57.157507  2596 net.cpp:137] Memory required for data: 336249200
I0421 05:56:57.157512  2596 layer_factory.hpp:77] Creating layer pool5
I0421 05:56:57.157522  2596 net.cpp:84] Creating Layer pool5
I0421 05:56:57.157527  2596 net.cpp:406] pool5 <- conv5
I0421 05:56:57.157534  2596 net.cpp:380] pool5 -> pool5
I0421 05:56:57.157579  2596 net.cpp:122] Setting up pool5
I0421 05:56:57.157588  2596 net.cpp:129] Top shape: 50 256 6 6 (460800)
I0421 05:56:57.157591  2596 net.cpp:137] Memory required for data: 338092400
I0421 05:56:57.157596  2596 layer_factory.hpp:77] Creating layer fc6
I0421 05:56:57.157605  2596 net.cpp:84] Creating Layer fc6
I0421 05:56:57.157611  2596 net.cpp:406] fc6 <- pool5
I0421 05:56:57.157618  2596 net.cpp:380] fc6 -> fc6
I0421 05:56:57.492583  2596 net.cpp:122] Setting up fc6
I0421 05:56:57.492616  2596 net.cpp:129] Top shape: 50 4096 (204800)
I0421 05:56:57.492620  2596 net.cpp:137] Memory required for data: 338911600
I0421 05:56:57.492641  2596 layer_factory.hpp:77] Creating layer relu6
I0421 05:56:57.492655  2596 net.cpp:84] Creating Layer relu6
I0421 05:56:57.492661  2596 net.cpp:406] relu6 <- fc6
I0421 05:56:57.492669  2596 net.cpp:367] relu6 -> fc6 (in-place)
I0421 05:56:57.493105  2596 net.cpp:122] Setting up relu6
I0421 05:56:57.493124  2596 net.cpp:129] Top shape: 50 4096 (204800)
I0421 05:56:57.493129  2596 net.cpp:137] Memory required for data: 339730800
I0421 05:56:57.493132  2596 layer_factory.hpp:77] Creating layer drop6
I0421 05:56:57.493149  2596 net.cpp:84] Creating Layer drop6
I0421 05:56:57.493154  2596 net.cpp:406] drop6 <- fc6
I0421 05:56:57.493160  2596 net.cpp:367] drop6 -> fc6 (in-place)
I0421 05:56:57.493207  2596 net.cpp:122] Setting up drop6
I0421 05:56:57.493214  2596 net.cpp:129] Top shape: 50 4096 (204800)
I0421 05:56:57.493227  2596 net.cpp:137] Memory required for data: 340550000
I0421 05:56:57.493229  2596 layer_factory.hpp:77] Creating layer fc7
I0421 05:56:57.493247  2596 net.cpp:84] Creating Layer fc7
I0421 05:56:57.493250  2596 net.cpp:406] fc7 <- fc6
I0421 05:56:57.493258  2596 net.cpp:380] fc7 -> fc7
I0421 05:56:57.641218  2596 net.cpp:122] Setting up fc7
I0421 05:56:57.641254  2596 net.cpp:129] Top shape: 50 4096 (204800)
I0421 05:56:57.641258  2596 net.cpp:137] Memory required for data: 341369200
I0421 05:56:57.641279  2596 layer_factory.hpp:77] Creating layer relu7
I0421 05:56:57.641293  2596 net.cpp:84] Creating Layer relu7
I0421 05:56:57.641297  2596 net.cpp:406] relu7 <- fc7
I0421 05:56:57.641314  2596 net.cpp:367] relu7 -> fc7 (in-place)
I0421 05:56:57.641767  2596 net.cpp:122] Setting up relu7
I0421 05:56:57.641777  2596 net.cpp:129] Top shape: 50 4096 (204800)
I0421 05:56:57.641782  2596 net.cpp:137] Memory required for data: 342188400
I0421 05:56:57.641784  2596 layer_factory.hpp:77] Creating layer drop7
I0421 05:56:57.641791  2596 net.cpp:84] Creating Layer drop7
I0421 05:56:57.641795  2596 net.cpp:406] drop7 <- fc7
I0421 05:56:57.641811  2596 net.cpp:367] drop7 -> fc7 (in-place)
I0421 05:56:57.641866  2596 net.cpp:122] Setting up drop7
I0421 05:56:57.641891  2596 net.cpp:129] Top shape: 50 4096 (204800)
I0421 05:56:57.641902  2596 net.cpp:137] Memory required for data: 343007600
I0421 05:56:57.641906  2596 layer_factory.hpp:77] Creating layer fc8_stanford_cars
I0421 05:56:57.641914  2596 net.cpp:84] Creating Layer fc8_stanford_cars
I0421 05:56:57.641918  2596 net.cpp:406] fc8_stanford_cars <- fc7
I0421 05:56:57.641927  2596 net.cpp:380] fc8_stanford_cars -> fc8_stanford_cars
I0421 05:56:57.649194  2596 net.cpp:122] Setting up fc8_stanford_cars
I0421 05:56:57.649233  2596 net.cpp:129] Top shape: 50 196 (9800)
I0421 05:56:57.649237  2596 net.cpp:137] Memory required for data: 343046800
I0421 05:56:57.649250  2596 layer_factory.hpp:77] Creating layer fc8_stanford_cars_fc8_stanford_cars_0_split
I0421 05:56:57.649262  2596 net.cpp:84] Creating Layer fc8_stanford_cars_fc8_stanford_cars_0_split
I0421 05:56:57.649267  2596 net.cpp:406] fc8_stanford_cars_fc8_stanford_cars_0_split <- fc8_stanford_cars
I0421 05:56:57.649307  2596 net.cpp:380] fc8_stanford_cars_fc8_stanford_cars_0_split -> fc8_stanford_cars_fc8_stanford_cars_0_split_0
I0421 05:56:57.649319  2596 net.cpp:380] fc8_stanford_cars_fc8_stanford_cars_0_split -> fc8_stanford_cars_fc8_stanford_cars_0_split_1
I0421 05:56:57.649371  2596 net.cpp:122] Setting up fc8_stanford_cars_fc8_stanford_cars_0_split
I0421 05:56:57.649379  2596 net.cpp:129] Top shape: 50 196 (9800)
I0421 05:56:57.649391  2596 net.cpp:129] Top shape: 50 196 (9800)
I0421 05:56:57.649394  2596 net.cpp:137] Memory required for data: 343125200
I0421 05:56:57.649399  2596 layer_factory.hpp:77] Creating layer accuracy
I0421 05:56:57.649407  2596 net.cpp:84] Creating Layer accuracy
I0421 05:56:57.649411  2596 net.cpp:406] accuracy <- fc8_stanford_cars_fc8_stanford_cars_0_split_0
I0421 05:56:57.649417  2596 net.cpp:406] accuracy <- label_data_1_split_0
…
