…
I0423 17:11:20.056087  2313 net.cpp:294] The NetState phase (0) differed from the phase (1) specified by a rule in layer accuracy
I0423 17:11:20.056260  2313 net.cpp:51] Initializing net from parameters:
name: "StanfordCarsNet"
state {
  phase: TRAIN
  level: 0
  stage: ""
}
layer {
  name: "data"
  type: "ImageData"
  top: "data"
  top: "label"
  include {
    phase: TRAIN
  }
  transform_param {
    mirror: true
    crop_size: 227
    mean_file: "data/ilsvrc12/imagenet_mean.binaryproto"
  }
  image_data_param {
    source: "data/stanford_cars/train.txt"
    batch_size: 50
    new_height: 256
    new_width: 256
  }
}
layer {
  name: "conv1"
  type: "Convolution"
  bottom: "data"
  top: "conv1"
  param {
    lr_mult: 1
    decay_mult: 1
  }
  param {
    lr_mult: 2
    decay_mult: 0
  }
  convolution_param {
    num_output: 96
    kernel_size: 11
    stride: 4
    weight_filler {
      type: "gaussian"
      std: 0.01
    }
    bias_filler {
      type: "constant"
      value: 0
    }
  }
}
layer {
  name: "relu1"
  type: "ReLU"
  bottom: "conv1"
  top: "conv1"
}
layer {
  name: "pool1"
  type: "Pooling"
  bottom: "conv1"
  top: "pool1"
  pooling_param {
    pool: MAX
    kernel_size: 3
    stride: 2
  }
}
layer {
  name: "norm1"
  type: "LRN"
  bottom: "pool1"
  top: "norm1"
  lrn_param {
    local_size: 5
    alpha: 0.0001
    beta: 0.75
  }
}
layer {
  name: "conv2"
  type: "Convolution"
  bottom: "norm1"
  top: "conv2"
  param {
    lr_mult: 1
    decay_mult: 1
  }
  param {
    lr_mult: 2
    decay_mult: 0
  }
  convolution_param {
    num_output: 256
    pad: 2
    kernel_size: 5
    group: 2
    weight_filler {
      type: "gaussian"
      std: 0.01
    }
    bias_filler {
      type: "constant"
      value: 1
    }
  }
}
layer {
  name: "relu2"
  type: "ReLU"
  bottom: "conv2"
  top: "conv2"
}
layer {
  name: "pool2"
  type: "Pooling"
  bottom: "conv2"
  top: "pool2"
  pooling_param {
    pool: MAX
    kernel_size: 3
    stride: 2
  }
}
layer {
  name: "norm2"
  type: "LRN"
  bottom: "pool2"
  top: "norm2"
  lrn_param {
    local_size: 5
    alpha: 0.0001
    beta: 0.75
  }
}
layer {
  name: "conv3"
  type: "Convolution"
  bottom: "norm2"
  top: "conv3"
  param {
    lr_mult: 1
    decay_mult: 1
  }
  param {
    lr_mult: 2
    decay_mult: 0
  }
  convolution_param {
    num_output: 384
    pad: 1
    kernel_size: 3
    weight_filler {
      type: "gaussian"
      std: 0.01
    }
    bias_filler {
      type: "constant"
      value: 0
    }
  }
}
layer {
  name: "relu3"
  type: "ReLU"
  bottom: "conv3"
  top: "conv3"
}
layer {
  name: "conv4"
  type: "Convolution"
  bottom: "conv3"
  top: "conv4"
  param {
    lr_mult: 1
    decay_mult: 1
  }
  param {
    lr_mult: 2
    decay_mult: 0
  }
  convolution_param {
    num_output: 384
    pad: 1
    kernel_size: 3
    group: 2
    weight_filler {
      type: "gaussian"
      std: 0.01
    }
    bias_filler {
      type: "constant"
      value: 1
    }
  }
}
layer {
  name: "relu4"
  type: "ReLU"
  bottom: "conv4"
  top: "conv4"
}
layer {
  name: "conv5"
  type: "Convolution"
  bottom: "conv4"
  top: "conv5"
  param {
    lr_mult: 1
    decay_mult: 1
  }
  param {
    lr_mult: 2
    decay_mult: 0
  }
  convolution_param {
    num_output: 256
    pad: 1
    kernel_size: 3
    group: 2
    weight_filler {
      type: "gaussian"
      std: 0.01
    }
    bias_filler {
      type: "constant"
      value: 1
    }
  }
}
layer {
  name: "relu5"
  type: "ReLU"
  bottom: "conv5"
  top: "conv5"
}
layer {
  name: "pool5"
  type: "Pooling"
  bottom: "conv5"
  top: "pool5"
  pooling_param {
    pool: MAX
    kernel_size: 3
    stride: 2
  }
}
layer {
  name: "fc6"
  type: "InnerProduct"
  bottom: "pool5"
  top: "fc6"
  param {
    lr_mult: 1
    decay_mult: 1
  }
  param {
    lr_mult: 2
    decay_mult: 0
  }
  inner_product_param {
    num_output: 4096
    weight_filler {
      type: "gaussian"
      std: 0.005
    }
    bias_filler {
      type: "constant"
      value: 1
    }
  }
}
layer {
  name: "relu6"
  type: "ReLU"
  bottom: "fc6"
  top: "fc6"
}
layer {
  name: "drop6"
  type: "Dropout"
  bottom: "fc6"
  top: "fc6"
  dropout_param {
    dropout_ratio: 0.5
  }
}
layer {
  name: "fc7"
  type: "InnerProduct"
  bottom: "fc6"
  top: "fc7"
  param {
    lr_mult: 1
    decay_mult: 1
  }
  param {
    lr_mult: 2
    decay_mult: 0
  }
  inner_product_param {
    num_output: 4096
    weight_filler {
      type: "gaussian"
      std: 0.005
    }
    bias_filler {
      type: "constant"
      value: 1
    }
  }
}
layer {
  name: "relu7"
  type: "ReLU"
  bottom: "fc7"
  top: "fc7"
}
layer {
  name: "drop7"
  type: "Dropout"
  bottom: "fc7"
  top: "fc7"
  dropout_param {
    dropout_ratio: 0.8
  }
}
layer {
  name: "fc8_stanford_cars"
  type: "InnerProduct"
  bottom: "fc7"
  top: "fc8_stanford_cars"
  param {
    lr_mult: 10
    decay_mult: 1
  }
  param {
    lr_mult: 20
    decay_mult: 0
  }
  inner_product_param {
    num_output: 196
    weight_filler {
      type: "gaussian"
      std: 0.01
    }
    bias_filler {
      type: "constant"
      value: 0
    }
  }
}
layer {
  name: "loss"
  type: "SoftmaxWithLoss"
  bottom: "fc8_stanford_cars"
  bottom: "label"
  top: "loss"
}
I0423 17:11:20.056460  2313 layer_factory.hpp:77] Creating layer data
I0423 17:11:20.056493  2313 net.cpp:84] Creating Layer data
I0423 17:11:20.056502  2313 net.cpp:380] data -> data
I0423 17:11:20.056522  2313 net.cpp:380] data -> label
I0423 17:11:20.056538  2313 data_transformer.cpp:25] Loading mean file from: data/ilsvrc12/imagenet_mean.binaryproto
I0423 17:11:20.093840  2313 image_data_layer.cpp:38] Opening file data/stanford_cars/train.txt
I0423 17:11:20.104748  2313 image_data_layer.cpp:63] A total of 6500 images.
I0423 17:11:20.161387  2313 image_data_layer.cpp:90] output data size: 50,3,227,227
I0423 17:11:20.209110  2313 net.cpp:122] Setting up data
I0423 17:11:20.209144  2313 net.cpp:129] Top shape: 50 3 227 227 (7729350)
I0423 17:11:20.209151  2313 net.cpp:129] Top shape: 50 (50)
I0423 17:11:20.209156  2313 net.cpp:137] Memory required for data: 30917600
I0423 17:11:20.209163  2313 layer_factory.hpp:77] Creating layer conv1
I0423 17:11:20.209187  2313 net.cpp:84] Creating Layer conv1
I0423 17:11:20.209194  2313 net.cpp:406] conv1 <- data
I0423 17:11:20.209208  2313 net.cpp:380] conv1 -> conv1
I0423 17:11:26.852819  2313 net.cpp:122] Setting up conv1
I0423 17:11:26.852867  2313 net.cpp:129] Top shape: 50 96 55 55 (14520000)
I0423 17:11:26.852875  2313 net.cpp:137] Memory required for data: 88997600
I0423 17:11:26.852926  2313 layer_factory.hpp:77] Creating layer relu1
I0423 17:11:26.852952  2313 net.cpp:84] Creating Layer relu1
I0423 17:11:26.852957  2313 net.cpp:406] relu1 <- conv1
I0423 17:11:26.852965  2313 net.cpp:367] relu1 -> conv1 (in-place)
I0423 17:11:26.853459  2313 net.cpp:122] Setting up relu1
I0423 17:11:26.853480  2313 net.cpp:129] Top shape: 50 96 55 55 (14520000)
I0423 17:11:26.853487  2313 net.cpp:137] Memory required for data: 147077600
I0423 17:11:26.853495  2313 layer_factory.hpp:77] Creating layer pool1
I0423 17:11:26.853508  2313 net.cpp:84] Creating Layer pool1
I0423 17:11:26.853518  2313 net.cpp:406] pool1 <- conv1
I0423 17:11:26.853529  2313 net.cpp:380] pool1 -> pool1
I0423 17:11:26.853613  2313 net.cpp:122] Setting up pool1
I0423 17:11:26.853629  2313 net.cpp:129] Top shape: 50 96 27 27 (3499200)
I0423 17:11:26.853669  2313 net.cpp:137] Memory required for data: 161074400
I0423 17:11:26.853678  2313 layer_factory.hpp:77] Creating layer norm1
I0423 17:11:26.853700  2313 net.cpp:84] Creating Layer norm1
I0423 17:11:26.853710  2313 net.cpp:406] norm1 <- pool1
I0423 17:11:26.853729  2313 net.cpp:380] norm1 -> norm1
I0423 17:11:26.863005  2313 net.cpp:122] Setting up norm1
I0423 17:11:26.863034  2313 net.cpp:129] Top shape: 50 96 27 27 (3499200)
I0423 17:11:26.863042  2313 net.cpp:137] Memory required for data: 175071200
I0423 17:11:26.863051  2313 layer_factory.hpp:77] Creating layer conv2
I0423 17:11:26.863073  2313 net.cpp:84] Creating Layer conv2
I0423 17:11:26.863088  2313 net.cpp:406] conv2 <- norm1
I0423 17:11:26.863097  2313 net.cpp:380] conv2 -> conv2
I0423 17:11:26.886353  2313 net.cpp:122] Setting up conv2
I0423 17:11:26.886394  2313 net.cpp:129] Top shape: 50 256 27 27 (9331200)
I0423 17:11:26.886401  2313 net.cpp:137] Memory required for data: 212396000
I0423 17:11:26.886422  2313 layer_factory.hpp:77] Creating layer relu2
I0423 17:11:26.886438  2313 net.cpp:84] Creating Layer relu2
I0423 17:11:26.886446  2313 net.cpp:406] relu2 <- conv2
I0423 17:11:26.886459  2313 net.cpp:367] relu2 -> conv2 (in-place)
I0423 17:11:26.886955  2313 net.cpp:122] Setting up relu2
I0423 17:11:26.886972  2313 net.cpp:129] Top shape: 50 256 27 27 (9331200)
I0423 17:11:26.886979  2313 net.cpp:137] Memory required for data: 249720800
I0423 17:11:26.886986  2313 layer_factory.hpp:77] Creating layer pool2
I0423 17:11:26.886996  2313 net.cpp:84] Creating Layer pool2
I0423 17:11:26.887003  2313 net.cpp:406] pool2 <- conv2
I0423 17:11:26.887017  2313 net.cpp:380] pool2 -> pool2
I0423 17:11:26.887084  2313 net.cpp:122] Setting up pool2
I0423 17:11:26.887099  2313 net.cpp:129] Top shape: 50 256 13 13 (2163200)
I0423 17:11:26.887105  2313 net.cpp:137] Memory required for data: 258373600
I0423 17:11:26.887111  2313 layer_factory.hpp:77] Creating layer norm2
I0423 17:11:26.887125  2313 net.cpp:84] Creating Layer norm2
I0423 17:11:26.887133  2313 net.cpp:406] norm2 <- pool2
I0423 17:11:26.887145  2313 net.cpp:380] norm2 -> norm2
I0423 17:11:26.887388  2313 net.cpp:122] Setting up norm2
I0423 17:11:26.887404  2313 net.cpp:129] Top shape: 50 256 13 13 (2163200)
I0423 17:11:26.887411  2313 net.cpp:137] Memory required for data: 267026400
I0423 17:11:26.887418  2313 layer_factory.hpp:77] Creating layer conv3
I0423 17:11:26.887437  2313 net.cpp:84] Creating Layer conv3
I0423 17:11:26.887445  2313 net.cpp:406] conv3 <- norm2
I0423 17:11:26.887459  2313 net.cpp:380] conv3 -> conv3
I0423 17:11:26.901185  2313 net.cpp:122] Setting up conv3
I0423 17:11:26.901217  2313 net.cpp:129] Top shape: 50 384 13 13 (3244800)
I0423 17:11:26.901226  2313 net.cpp:137] Memory required for data: 280005600
I0423 17:11:26.901242  2313 layer_factory.hpp:77] Creating layer relu3
I0423 17:11:26.901255  2313 net.cpp:84] Creating Layer relu3
I0423 17:11:26.901262  2313 net.cpp:406] relu3 <- conv3
I0423 17:11:26.901275  2313 net.cpp:367] relu3 -> conv3 (in-place)
I0423 17:11:26.901664  2313 net.cpp:122] Setting up relu3
I0423 17:11:26.901681  2313 net.cpp:129] Top shape: 50 384 13 13 (3244800)
I0423 17:11:26.901687  2313 net.cpp:137] Memory required for data: 292984800
I0423 17:11:26.901695  2313 layer_factory.hpp:77] Creating layer conv4
I0423 17:11:26.901711  2313 net.cpp:84] Creating Layer conv4
I0423 17:11:26.901718  2313 net.cpp:406] conv4 <- conv3
I0423 17:11:26.901732  2313 net.cpp:380] conv4 -> conv4
I0423 17:11:26.925289  2313 net.cpp:122] Setting up conv4
I0423 17:11:26.925325  2313 net.cpp:129] Top shape: 50 384 13 13 (3244800)
I0423 17:11:26.925333  2313 net.cpp:137] Memory required for data: 305964000
I0423 17:11:26.925345  2313 layer_factory.hpp:77] Creating layer relu4
I0423 17:11:26.925359  2313 net.cpp:84] Creating Layer relu4
I0423 17:11:26.925367  2313 net.cpp:406] relu4 <- conv4
I0423 17:11:26.925379  2313 net.cpp:367] relu4 -> conv4 (in-place)
I0423 17:11:26.925814  2313 net.cpp:122] Setting up relu4
I0423 17:11:26.925853  2313 net.cpp:129] Top shape: 50 384 13 13 (3244800)
I0423 17:11:26.925859  2313 net.cpp:137] Memory required for data: 318943200
I0423 17:11:26.925865  2313 layer_factory.hpp:77] Creating layer conv5
I0423 17:11:26.925884  2313 net.cpp:84] Creating Layer conv5
I0423 17:11:26.925891  2313 net.cpp:406] conv5 <- conv4
I0423 17:11:26.925904  2313 net.cpp:380] conv5 -> conv5
I0423 17:11:26.933826  2313 net.cpp:122] Setting up conv5
I0423 17:11:26.933848  2313 net.cpp:129] Top shape: 50 256 13 13 (2163200)
I0423 17:11:26.933854  2313 net.cpp:137] Memory required for data: 327596000
I0423 17:11:26.933868  2313 layer_factory.hpp:77] Creating layer relu5
I0423 17:11:26.933879  2313 net.cpp:84] Creating Layer relu5
I0423 17:11:26.933886  2313 net.cpp:406] relu5 <- conv5
I0423 17:11:26.933895  2313 net.cpp:367] relu5 -> conv5 (in-place)
I0423 17:11:26.934082  2313 net.cpp:122] Setting up relu5
I0423 17:11:26.934095  2313 net.cpp:129] Top shape: 50 256 13 13 (2163200)
I0423 17:11:26.934100  2313 net.cpp:137] Memory required for data: 336248800
I0423 17:11:26.934105  2313 layer_factory.hpp:77] Creating layer pool5
I0423 17:11:26.934114  2313 net.cpp:84] Creating Layer pool5
I0423 17:11:26.934121  2313 net.cpp:406] pool5 <- conv5
I0423 17:11:26.934134  2313 net.cpp:380] pool5 -> pool5
I0423 17:11:26.934186  2313 net.cpp:122] Setting up pool5
I0423 17:11:26.934200  2313 net.cpp:129] Top shape: 50 256 6 6 (460800)
I0423 17:11:26.934204  2313 net.cpp:137] Memory required for data: 338092000
I0423 17:11:26.934209  2313 layer_factory.hpp:77] Creating layer fc6
I0423 17:11:26.934222  2313 net.cpp:84] Creating Layer fc6
I0423 17:11:26.934229  2313 net.cpp:406] fc6 <- pool5
I0423 17:11:26.934239  2313 net.cpp:380] fc6 -> fc6
I0423 17:11:27.276765  2313 net.cpp:122] Setting up fc6
I0423 17:11:27.276801  2313 net.cpp:129] Top shape: 50 4096 (204800)
I0423 17:11:27.276805  2313 net.cpp:137] Memory required for data: 338911200
I0423 17:11:27.276815  2313 layer_factory.hpp:77] Creating layer relu6
I0423 17:11:27.276844  2313 net.cpp:84] Creating Layer relu6
I0423 17:11:27.276856  2313 net.cpp:406] relu6 <- fc6
I0423 17:11:27.276875  2313 net.cpp:367] relu6 -> fc6 (in-place)
I0423 17:11:27.277284  2313 net.cpp:122] Setting up relu6
I0423 17:11:27.277295  2313 net.cpp:129] Top shape: 50 4096 (204800)
I0423 17:11:27.277298  2313 net.cpp:137] Memory required for data: 339730400
I0423 17:11:27.277302  2313 layer_factory.hpp:77] Creating layer drop6
I0423 17:11:27.277310  2313 net.cpp:84] Creating Layer drop6
I0423 17:11:27.277314  2313 net.cpp:406] drop6 <- fc6
I0423 17:11:27.277331  2313 net.cpp:367] drop6 -> fc6 (in-place)
I0423 17:11:27.277386  2313 net.cpp:122] Setting up drop6
I0423 17:11:27.277402  2313 net.cpp:129] Top shape: 50 4096 (204800)
I0423 17:11:27.277405  2313 net.cpp:137] Memory required for data: 340549600
I0423 17:11:27.277410  2313 layer_factory.hpp:77] Creating layer fc7
I0423 17:11:27.277417  2313 net.cpp:84] Creating Layer fc7
I0423 17:11:27.277431  2313 net.cpp:406] fc7 <- fc6
I0423 17:11:27.277449  2313 net.cpp:380] fc7 -> fc7
I0423 17:11:27.422076  2313 net.cpp:122] Setting up fc7
I0423 17:11:27.422108  2313 net.cpp:129] Top shape: 50 4096 (204800)
I0423 17:11:27.422112  2313 net.cpp:137] Memory required for data: 341368800
I0423 17:11:27.422122  2313 layer_factory.hpp:77] Creating layer relu7
I0423 17:11:27.422149  2313 net.cpp:84] Creating Layer relu7
I0423 17:11:27.422155  2313 net.cpp:406] relu7 <- fc7
I0423 17:11:27.422171  2313 net.cpp:367] relu7 -> fc7 (in-place)
I0423 17:11:27.422390  2313 net.cpp:122] Setting up relu7
I0423 17:11:27.422399  2313 net.cpp:129] Top shape: 50 4096 (204800)
I0423 17:11:27.422404  2313 net.cpp:137] Memory required for data: 342188000
I0423 17:11:27.422406  2313 layer_factory.hpp:77] Creating layer drop7
I0423 17:11:27.422413  2313 net.cpp:84] Creating Layer drop7
I0423 17:11:27.422416  2313 net.cpp:406] drop7 <- fc7
I0423 17:11:27.422425  2313 net.cpp:367] drop7 -> fc7 (in-place)
I0423 17:11:27.422466  2313 net.cpp:122] Setting up drop7
I0423 17:11:27.422473  2313 net.cpp:129] Top shape: 50 4096 (204800)
I0423 17:11:27.422523  2313 net.cpp:137] Memory required for data: 343007200
I0423 17:11:27.422528  2313 layer_factory.hpp:77] Creating layer fc8_stanford_cars
I0423 17:11:27.422552  2313 net.cpp:84] Creating Layer fc8_stanford_cars
I0423 17:11:27.422556  2313 net.cpp:406] fc8_stanford_cars <- fc7
I0423 17:11:27.422564  2313 net.cpp:380] fc8_stanford_cars -> fc8_stanford_cars
I0423 17:11:27.429599  2313 net.cpp:122] Setting up fc8_stanford_cars
I0423 17:11:27.429611  2313 net.cpp:129] Top shape: 50 196 (9800)
I0423 17:11:27.429615  2313 net.cpp:137] Memory required for data: 343046400
I0423 17:11:27.429621  2313 layer_factory.hpp:77] Creating layer loss
I0423 17:11:27.429633  2313 net.cpp:84] Creating Layer loss
I0423 17:11:27.429646  2313 net.cpp:406] loss <- fc8_stanford_cars
I0423 17:11:27.429652  2313 net.cpp:406] loss <- label
I0423 17:11:27.429661  2313 net.cpp:380] loss -> loss
I0423 17:11:27.429682  2313 layer_factory.hpp:77] Creating layer loss
…
I0423 17:11:27.430862  2313 net.cpp:294] The NetState phase (1) differed from the phase (0) specified by a rule in layer data
I0423 17:11:27.431021  2313 net.cpp:51] Initializing net from parameters:
name: "StanfordCarsNet"
state {
  phase: TEST
}
layer {
  name: "data"
  type: "ImageData"
  top: "data"
  top: "label"
  include {
    phase: TEST
  }
  transform_param {
    mirror: false
    crop_size: 227
    mean_file: "data/ilsvrc12/imagenet_mean.binaryproto"
  }
  image_data_param {
    source: "data/stanford_cars/test.txt"
    batch_size: 50
    new_height: 256
    new_width: 256
  }
}
layer {
  name: "conv1"
  type: "Convolution"
  bottom: "data"
  top: "conv1"
  param {
    lr_mult: 1
    decay_mult: 1
  }
  param {
    lr_mult: 2
    decay_mult: 0
  }
  convolution_param {
    num_output: 96
    kernel_size: 11
    stride: 4
    weight_filler {
      type: "gaussian"
      std: 0.01
    }
    bias_filler {
      type: "constant"
      value: 0
    }
  }
}
layer {
  name: "relu1"
  type: "ReLU"
  bottom: "conv1"
  top: "conv1"
}
layer {
  name: "pool1"
  type: "Pooling"
  bottom: "conv1"
  top: "pool1"
  pooling_param {
    pool: MAX
    kernel_size: 3
    stride: 2
  }
}
layer {
  name: "norm1"
  type: "LRN"
  bottom: "pool1"
  top: "norm1"
  lrn_param {
    local_size: 5
    alpha: 0.0001
    beta: 0.75
  }
}
layer {
  name: "conv2"
  type: "Convolution"
  bottom: "norm1"
  top: "conv2"
  param {
    lr_mult: 1
    decay_mult: 1
  }
  param {
    lr_mult: 2
    decay_mult: 0
  }
  convolution_param {
    num_output: 256
    pad: 2
    kernel_size: 5
    group: 2
    weight_filler {
      type: "gaussian"
      std: 0.01
    }
    bias_filler {
      type: "constant"
      value: 1
    }
  }
}
layer {
  name: "relu2"
  type: "ReLU"
  bottom: "conv2"
  top: "conv2"
}
layer {
  name: "pool2"
  type: "Pooling"
  bottom: "conv2"
  top: "pool2"
  pooling_param {
    pool: MAX
    kernel_size: 3
    stride: 2
  }
}
layer {
  name: "norm2"
  type: "LRN"
  bottom: "pool2"
  top: "norm2"
  lrn_param {
    local_size: 5
    alpha: 0.0001
    beta: 0.75
  }
}
layer {
  name: "conv3"
  type: "Convolution"
  bottom: "norm2"
  top: "conv3"
  param {
    lr_mult: 1
    decay_mult: 1
  }
  param {
    lr_mult: 2
    decay_mult: 0
  }
  convolution_param {
    num_output: 384
    pad: 1
    kernel_size: 3
    weight_filler {
      type: "gaussian"
      std: 0.01
    }
    bias_filler {
      type: "constant"
      value: 0
    }
  }
}
layer {
  name: "relu3"
  type: "ReLU"
  bottom: "conv3"
  top: "conv3"
}
layer {
  name: "conv4"
  type: "Convolution"
  bottom: "conv3"
  top: "conv4"
  param {
    lr_mult: 1
    decay_mult: 1
  }
  param {
    lr_mult: 2
    decay_mult: 0
  }
  convolution_param {
    num_output: 384
    pad: 1
    kernel_size: 3
    group: 2
    weight_filler {
      type: "gaussian"
      std: 0.01
    }
    bias_filler {
      type: "constant"
      value: 1
    }
  }
}
layer {
  name: "relu4"
  type: "ReLU"
  bottom: "conv4"
  top: "conv4"
}
layer {
  name: "conv5"
  type: "Convolution"
  bottom: "conv4"
  top: "conv5"
  param {
    lr_mult: 1
    decay_mult: 1
  }
  param {
    lr_mult: 2
    decay_mult: 0
  }
  convolution_param {
    num_output: 256
    pad: 1
    kernel_size: 3
    group: 2
    weight_filler {
      type: "gaussian"
      std: 0.01
    }
    bias_filler {
      type: "constant"
      value: 1
    }
  }
}
layer {
  name: "relu5"
  type: "ReLU"
  bottom: "conv5"
  top: "conv5"
}
layer {
  name: "pool5"
  type: "Pooling"
  bottom: "conv5"
  top: "pool5"
  pooling_param {
    pool: MAX
    kernel_size: 3
    stride: 2
  }
}
layer {
  name: "fc6"
  type: "InnerProduct"
  bottom: "pool5"
  top: "fc6"
  param {
    lr_mult: 1
    decay_mult: 1
  }
  param {
    lr_mult: 2
    decay_mult: 0
  }
  inner_product_param {
    num_output: 4096
    weight_filler {
      type: "gaussian"
      std: 0.005
    }
    bias_filler {
      type: "constant"
      value: 1
    }
  }
}
layer {
  name: "relu6"
  type: "ReLU"
  bottom: "fc6"
  top: "fc6"
}
layer {
  name: "drop6"
  type: "Dropout"
  bottom: "fc6"
  top: "fc6"
  dropout_param {
    dropout_ratio: 0.5
  }
}
layer {
  name: "fc7"
  type: "InnerProduct"
  bottom: "fc6"
  top: "fc7"
  param {
    lr_mult: 1
    decay_mult: 1
  }
  param {
    lr_mult: 2
    decay_mult: 0
  }
  inner_product_param {
    num_output: 4096
    weight_filler {
      type: "gaussian"
      std: 0.005
    }
    bias_filler {
      type: "constant"
      value: 1
    }
  }
}
layer {
  name: "relu7"
  type: "ReLU"
  bottom: "fc7"
  top: "fc7"
}
layer {
  name: "drop7"
  type: "Dropout"
  bottom: "fc7"
  top: "fc7"
  dropout_param {
    dropout_ratio: 0.8
  }
}
layer {
  name: "fc8_stanford_cars"
  type: "InnerProduct"
  bottom: "fc7"
  top: "fc8_stanford_cars"
  param {
    lr_mult: 10
    decay_mult: 1
  }
  param {
    lr_mult: 20
    decay_mult: 0
  }
  inner_product_param {
    num_output: 196
    weight_filler {
      type: "gaussian"
      std: 0.01
    }
    bias_filler {
      type: "constant"
      value: 0
    }
  }
}
layer {
  name: "accuracy"
  type: "Accuracy"
  bottom: "fc8_stanford_cars"
  bottom: "label"
  top: "accuracy"
  include {
    phase: TEST
  }
}
layer {
  name: "loss"
  type: "SoftmaxWithLoss"
  bottom: "fc8_stanford_cars"
  bottom: "label"
  top: "loss"
}
I0423 17:11:27.431252  2313 layer_factory.hpp:77] Creating layer data
I0423 17:11:27.431267  2313 net.cpp:84] Creating Layer data
I0423 17:11:27.431275  2313 net.cpp:380] data -> data
I0423 17:11:27.431284  2313 net.cpp:380] data -> label
I0423 17:11:27.431293  2313 data_transformer.cpp:25] Loading mean file from: data/ilsvrc12/imagenet_mean.binaryproto
I0423 17:11:27.432613  2313 image_data_layer.cpp:38] Opening file data/stanford_cars/test.txt
I0423 17:11:27.444535  2313 image_data_layer.cpp:63] A total of 1644 images.
I0423 17:11:27.467001  2313 image_data_layer.cpp:90] output data size: 50,3,227,227
I0423 17:11:27.514073  2313 net.cpp:122] Setting up data
I0423 17:11:27.514116  2313 net.cpp:129] Top shape: 50 3 227 227 (7729350)
I0423 17:11:27.514132  2313 net.cpp:129] Top shape: 50 (50)
I0423 17:11:27.514139  2313 net.cpp:137] Memory required for data: 30917600
I0423 17:11:27.514148  2313 layer_factory.hpp:77] Creating layer label_data_1_split
I0423 17:11:27.514194  2313 net.cpp:84] Creating Layer label_data_1_split
I0423 17:11:27.514199  2313 net.cpp:406] label_data_1_split <- label
I0423 17:11:27.514217  2313 net.cpp:380] label_data_1_split -> label_data_1_split_0
I0423 17:11:27.514230  2313 net.cpp:380] label_data_1_split -> label_data_1_split_1
I0423 17:11:27.514323  2313 net.cpp:122] Setting up label_data_1_split
I0423 17:11:27.514350  2313 net.cpp:129] Top shape: 50 (50)
I0423 17:11:27.514355  2313 net.cpp:129] Top shape: 50 (50)
I0423 17:11:27.514358  2313 net.cpp:137] Memory required for data: 30918000
I0423 17:11:27.514364  2313 layer_factory.hpp:77] Creating layer conv1
I0423 17:11:27.514386  2313 net.cpp:84] Creating Layer conv1
I0423 17:11:27.514391  2313 net.cpp:406] conv1 <- data
I0423 17:11:27.514415  2313 net.cpp:380] conv1 -> conv1
I0423 17:11:27.515738  2313 net.cpp:122] Setting up conv1
I0423 17:11:27.515753  2313 net.cpp:129] Top shape: 50 96 55 55 (14520000)
I0423 17:11:27.515756  2313 net.cpp:137] Memory required for data: 88998000
I0423 17:11:27.515768  2313 layer_factory.hpp:77] Creating layer relu1
I0423 17:11:27.515774  2313 net.cpp:84] Creating Layer relu1
I0423 17:11:27.515779  2313 net.cpp:406] relu1 <- conv1
I0423 17:11:27.515785  2313 net.cpp:367] relu1 -> conv1 (in-place)
I0423 17:11:27.516078  2313 net.cpp:122] Setting up relu1
I0423 17:11:27.516089  2313 net.cpp:129] Top shape: 50 96 55 55 (14520000)
I0423 17:11:27.516093  2313 net.cpp:137] Memory required for data: 147078000
I0423 17:11:27.516098  2313 layer_factory.hpp:77] Creating layer pool1
I0423 17:11:27.516105  2313 net.cpp:84] Creating Layer pool1
I0423 17:11:27.516110  2313 net.cpp:406] pool1 <- conv1
I0423 17:11:27.516118  2313 net.cpp:380] pool1 -> pool1
I0423 17:11:27.516160  2313 net.cpp:122] Setting up pool1
I0423 17:11:27.516167  2313 net.cpp:129] Top shape: 50 96 27 27 (3499200)
I0423 17:11:27.516172  2313 net.cpp:137] Memory required for data: 161074800
I0423 17:11:27.516176  2313 layer_factory.hpp:77] Creating layer norm1
I0423 17:11:27.516185  2313 net.cpp:84] Creating Layer norm1
I0423 17:11:27.516189  2313 net.cpp:406] norm1 <- pool1
I0423 17:11:27.516196  2313 net.cpp:380] norm1 -> norm1
I0423 17:11:27.516341  2313 net.cpp:122] Setting up norm1
I0423 17:11:27.516351  2313 net.cpp:129] Top shape: 50 96 27 27 (3499200)
I0423 17:11:27.516355  2313 net.cpp:137] Memory required for data: 175071600
I0423 17:11:27.516360  2313 layer_factory.hpp:77] Creating layer conv2
I0423 17:11:27.516369  2313 net.cpp:84] Creating Layer conv2
I0423 17:11:27.516374  2313 net.cpp:406] conv2 <- norm1
I0423 17:11:27.516381  2313 net.cpp:380] conv2 -> conv2
I0423 17:11:27.520813  2313 net.cpp:122] Setting up conv2
I0423 17:11:27.520833  2313 net.cpp:129] Top shape: 50 256 27 27 (9331200)
I0423 17:11:27.520838  2313 net.cpp:137] Memory required for data: 212396400
I0423 17:11:27.520849  2313 layer_factory.hpp:77] Creating layer relu2
I0423 17:11:27.520859  2313 net.cpp:84] Creating Layer relu2
I0423 17:11:27.520864  2313 net.cpp:406] relu2 <- conv2
I0423 17:11:27.520870  2313 net.cpp:367] relu2 -> conv2 (in-place)
I0423 17:11:27.521158  2313 net.cpp:122] Setting up relu2
I0423 17:11:27.521169  2313 net.cpp:129] Top shape: 50 256 27 27 (9331200)
I0423 17:11:27.521183  2313 net.cpp:137] Memory required for data: 249721200
I0423 17:11:27.521186  2313 layer_factory.hpp:77] Creating layer pool2
I0423 17:11:27.521195  2313 net.cpp:84] Creating Layer pool2
I0423 17:11:27.521200  2313 net.cpp:406] pool2 <- conv2
I0423 17:11:27.521208  2313 net.cpp:380] pool2 -> pool2
I0423 17:11:27.521256  2313 net.cpp:122] Setting up pool2
I0423 17:11:27.521265  2313 net.cpp:129] Top shape: 50 256 13 13 (2163200)
I0423 17:11:27.521277  2313 net.cpp:137] Memory required for data: 258374000
I0423 17:11:27.521281  2313 layer_factory.hpp:77] Creating layer norm2
I0423 17:11:27.521289  2313 net.cpp:84] Creating Layer norm2
I0423 17:11:27.521294  2313 net.cpp:406] norm2 <- pool2
I0423 17:11:27.521301  2313 net.cpp:380] norm2 -> norm2
I0423 17:11:27.521595  2313 net.cpp:122] Setting up norm2
I0423 17:11:27.521605  2313 net.cpp:129] Top shape: 50 256 13 13 (2163200)
I0423 17:11:27.521618  2313 net.cpp:137] Memory required for data: 267026800
I0423 17:11:27.521622  2313 layer_factory.hpp:77] Creating layer conv3
I0423 17:11:27.521632  2313 net.cpp:84] Creating Layer conv3
I0423 17:11:27.521637  2313 net.cpp:406] conv3 <- norm2
I0423 17:11:27.521644  2313 net.cpp:380] conv3 -> conv3
I0423 17:11:27.530800  2313 net.cpp:122] Setting up conv3
I0423 17:11:27.530838  2313 net.cpp:129] Top shape: 50 384 13 13 (3244800)
I0423 17:11:27.530844  2313 net.cpp:137] Memory required for data: 280006000
I0423 17:11:27.530859  2313 layer_factory.hpp:77] Creating layer relu3
I0423 17:11:27.530879  2313 net.cpp:84] Creating Layer relu3
I0423 17:11:27.530894  2313 net.cpp:406] relu3 <- conv3
I0423 17:11:27.530901  2313 net.cpp:367] relu3 -> conv3 (in-place)
I0423 17:11:27.531033  2313 net.cpp:122] Setting up relu3
I0423 17:11:27.531041  2313 net.cpp:129] Top shape: 50 384 13 13 (3244800)
I0423 17:11:27.531054  2313 net.cpp:137] Memory required for data: 292985200
I0423 17:11:27.531059  2313 layer_factory.hpp:77] Creating layer conv4
I0423 17:11:27.531070  2313 net.cpp:84] Creating Layer conv4
I0423 17:11:27.531075  2313 net.cpp:406] conv4 <- conv3
I0423 17:11:27.531083  2313 net.cpp:380] conv4 -> conv4
I0423 17:11:27.538938  2313 net.cpp:122] Setting up conv4
I0423 17:11:27.538978  2313 net.cpp:129] Top shape: 50 384 13 13 (3244800)
I0423 17:11:27.538983  2313 net.cpp:137] Memory required for data: 305964400
I0423 17:11:27.538995  2313 layer_factory.hpp:77] Creating layer relu4
I0423 17:11:27.539006  2313 net.cpp:84] Creating Layer relu4
I0423 17:11:27.539012  2313 net.cpp:406] relu4 <- conv4
I0423 17:11:27.539021  2313 net.cpp:367] relu4 -> conv4 (in-place)
I0423 17:11:27.539294  2313 net.cpp:122] Setting up relu4
I0423 17:11:27.539304  2313 net.cpp:129] Top shape: 50 384 13 13 (3244800)
I0423 17:11:27.539317  2313 net.cpp:137] Memory required for data: 318943600
I0423 17:11:27.539322  2313 layer_factory.hpp:77] Creating layer conv5
I0423 17:11:27.539335  2313 net.cpp:84] Creating Layer conv5
I0423 17:11:27.539340  2313 net.cpp:406] conv5 <- conv4
I0423 17:11:27.539347  2313 net.cpp:380] conv5 -> conv5
I0423 17:11:27.545523  2313 net.cpp:122] Setting up conv5
I0423 17:11:27.545557  2313 net.cpp:129] Top shape: 50 256 13 13 (2163200)
I0423 17:11:27.545560  2313 net.cpp:137] Memory required for data: 327596400
I0423 17:11:27.545584  2313 layer_factory.hpp:77] Creating layer relu5
I0423 17:11:27.545603  2313 net.cpp:84] Creating Layer relu5
I0423 17:11:27.545616  2313 net.cpp:406] relu5 <- conv5
I0423 17:11:27.545624  2313 net.cpp:367] relu5 -> conv5 (in-place)
I0423 17:11:27.545799  2313 net.cpp:122] Setting up relu5
I0423 17:11:27.545809  2313 net.cpp:129] Top shape: 50 256 13 13 (2163200)
I0423 17:11:27.545812  2313 net.cpp:137] Memory required for data: 336249200
I0423 17:11:27.545816  2313 layer_factory.hpp:77] Creating layer pool5
I0423 17:11:27.545825  2313 net.cpp:84] Creating Layer pool5
I0423 17:11:27.545831  2313 net.cpp:406] pool5 <- conv5
I0423 17:11:27.545837  2313 net.cpp:380] pool5 -> pool5
I0423 17:11:27.545881  2313 net.cpp:122] Setting up pool5
I0423 17:11:27.545888  2313 net.cpp:129] Top shape: 50 256 6 6 (460800)
I0423 17:11:27.545892  2313 net.cpp:137] Memory required for data: 338092400
I0423 17:11:27.545895  2313 layer_factory.hpp:77] Creating layer fc6
I0423 17:11:27.545902  2313 net.cpp:84] Creating Layer fc6
I0423 17:11:27.545907  2313 net.cpp:406] fc6 <- pool5
I0423 17:11:27.545914  2313 net.cpp:380] fc6 -> fc6
I0423 17:11:27.876103  2313 net.cpp:122] Setting up fc6
I0423 17:11:27.876144  2313 net.cpp:129] Top shape: 50 4096 (204800)
I0423 17:11:27.876149  2313 net.cpp:137] Memory required for data: 338911600
I0423 17:11:27.876174  2313 layer_factory.hpp:77] Creating layer relu6
I0423 17:11:27.876190  2313 net.cpp:84] Creating Layer relu6
I0423 17:11:27.876196  2313 net.cpp:406] relu6 <- fc6
I0423 17:11:27.876214  2313 net.cpp:367] relu6 -> fc6 (in-place)
I0423 17:11:27.877818  2313 net.cpp:122] Setting up relu6
I0423 17:11:27.877831  2313 net.cpp:129] Top shape: 50 4096 (204800)
I0423 17:11:27.877835  2313 net.cpp:137] Memory required for data: 339730800
I0423 17:11:27.877840  2313 layer_factory.hpp:77] Creating layer drop6
I0423 17:11:27.877847  2313 net.cpp:84] Creating Layer drop6
I0423 17:11:27.877853  2313 net.cpp:406] drop6 <- fc6
I0423 17:11:27.877872  2313 net.cpp:367] drop6 -> fc6 (in-place)
I0423 17:11:27.877915  2313 net.cpp:122] Setting up drop6
I0423 17:11:27.877924  2313 net.cpp:129] Top shape: 50 4096 (204800)
I0423 17:11:27.877928  2313 net.cpp:137] Memory required for data: 340550000
I0423 17:11:27.877931  2313 layer_factory.hpp:77] Creating layer fc7
I0423 17:11:27.877938  2313 net.cpp:84] Creating Layer fc7
I0423 17:11:27.877943  2313 net.cpp:406] fc7 <- fc6
I0423 17:11:27.877950  2313 net.cpp:380] fc7 -> fc7
I0423 17:11:28.025542  2313 net.cpp:122] Setting up fc7
I0423 17:11:28.025576  2313 net.cpp:129] Top shape: 50 4096 (204800)
I0423 17:11:28.025581  2313 net.cpp:137] Memory required for data: 341369200
I0423 17:11:28.025600  2313 layer_factory.hpp:77] Creating layer relu7
I0423 17:11:28.025612  2313 net.cpp:84] Creating Layer relu7
I0423 17:11:28.025619  2313 net.cpp:406] relu7 <- fc7
I0423 17:11:28.025629  2313 net.cpp:367] relu7 -> fc7 (in-place)
I0423 17:11:28.026046  2313 net.cpp:122] Setting up relu7
I0423 17:11:28.026064  2313 net.cpp:129] Top shape: 50 4096 (204800)
I0423 17:11:28.026068  2313 net.cpp:137] Memory required for data: 342188400
I0423 17:11:28.026072  2313 layer_factory.hpp:77] Creating layer drop7
I0423 17:11:28.026088  2313 net.cpp:84] Creating Layer drop7
I0423 17:11:28.026093  2313 net.cpp:406] drop7 <- fc7
I0423 17:11:28.026099  2313 net.cpp:367] drop7 -> fc7 (in-place)
I0423 17:11:28.026145  2313 net.cpp:122] Setting up drop7
I0423 17:11:28.026161  2313 net.cpp:129] Top shape: 50 4096 (204800)
I0423 17:11:28.026173  2313 net.cpp:137] Memory required for data: 343007600
I0423 17:11:28.026177  2313 layer_factory.hpp:77] Creating layer fc8_stanford_cars
I0423 17:11:28.026187  2313 net.cpp:84] Creating Layer fc8_stanford_cars
I0423 17:11:28.026192  2313 net.cpp:406] fc8_stanford_cars <- fc7
I0423 17:11:28.026199  2313 net.cpp:380] fc8_stanford_cars -> fc8_stanford_cars
I0423 17:11:28.033347  2313 net.cpp:122] Setting up fc8_stanford_cars
I0423 17:11:28.033380  2313 net.cpp:129] Top shape: 50 196 (9800)
I0423 17:11:28.033383  2313 net.cpp:137] Memory required for data: 343046800
I0423 17:11:28.033404  2313 layer_factory.hpp:77] Creating layer fc8_stanford_cars_fc8_stanford_cars_0_split
I0423 17:11:28.033424  2313 net.cpp:84] Creating Layer fc8_stanford_cars_fc8_stanford_cars_0_split
I0423 17:11:28.033459  2313 net.cpp:406] fc8_stanford_cars_fc8_stanford_cars_0_split <- fc8_stanford_cars
I0423 17:11:28.033478  2313 net.cpp:380] fc8_stanford_cars_fc8_stanford_cars_0_split -> fc8_stanford_cars_fc8_stanford_cars_0_split_0
I0423 17:11:28.033490  2313 net.cpp:380] fc8_stanford_cars_fc8_stanford_cars_0_split -> fc8_stanford_cars_fc8_stanford_cars_0_split_1
I0423 17:11:28.033556  2313 net.cpp:122] Setting up fc8_stanford_cars_fc8_stanford_cars_0_split
I0423 17:11:28.033563  2313 net.cpp:129] Top shape: 50 196 (9800)
I0423 17:11:28.033576  2313 net.cpp:129] Top shape: 50 196 (9800)
I0423 17:11:28.033579  2313 net.cpp:137] Memory required for data: 343125200
I0423 17:11:28.033584  2313 layer_factory.hpp:77] Creating layer accuracy
I0423 17:11:28.033593  2313 net.cpp:84] Creating Layer accuracy
I0423 17:11:28.033598  2313 net.cpp:406] accuracy <- fc8_stanford_cars_fc8_stanford_cars_0_split_0
I0423 17:11:28.033603  2313 net.cpp:406] accuracy <- label_data_1_split_0
…
