…
I0423 20:34:12.920696  8486 net.cpp:294] The NetState phase (0) differed from the phase (1) specified by a rule in layer accuracy
I0423 20:34:12.920878  8486 net.cpp:51] Initializing net from parameters:
name: "StanfordCarsNet"
state {
  phase: TRAIN
  level: 0
  stage: ""
}
layer {
  name: "data"
  type: "ImageData"
  top: "data"
  top: "label"
  include {
    phase: TRAIN
  }
  transform_param {
    mirror: true
    crop_size: 227
    mean_file: "data/ilsvrc12/imagenet_mean.binaryproto"
  }
  image_data_param {
    source: "data/stanford_cars/train_02_8144pcs.txt"
    batch_size: 50
    new_height: 256
    new_width: 256
  }
}
layer {
  name: "conv1"
  type: "Convolution"
  bottom: "data"
  top: "conv1"
  param {
    lr_mult: 1
    decay_mult: 1
  }
  param {
    lr_mult: 2
    decay_mult: 0
  }
  convolution_param {
    num_output: 96
    kernel_size: 11
    stride: 4
    weight_filler {
      type: "gaussian"
      std: 0.01
    }
    bias_filler {
      type: "constant"
      value: 0
    }
  }
}
layer {
  name: "relu1"
  type: "ReLU"
  bottom: "conv1"
  top: "conv1"
}
layer {
  name: "pool1"
  type: "Pooling"
  bottom: "conv1"
  top: "pool1"
  pooling_param {
    pool: MAX
    kernel_size: 3
    stride: 2
  }
}
layer {
  name: "norm1"
  type: "LRN"
  bottom: "pool1"
  top: "norm1"
  lrn_param {
    local_size: 5
    alpha: 0.0001
    beta: 0.75
  }
}
layer {
  name: "conv2"
  type: "Convolution"
  bottom: "norm1"
  top: "conv2"
  param {
    lr_mult: 1
    decay_mult: 1
  }
  param {
    lr_mult: 2
    decay_mult: 0
  }
  convolution_param {
    num_output: 256
    pad: 2
    kernel_size: 5
    group: 2
    weight_filler {
      type: "gaussian"
      std: 0.01
    }
    bias_filler {
      type: "constant"
      value: 1
    }
  }
}
layer {
  name: "relu2"
  type: "ReLU"
  bottom: "conv2"
  top: "conv2"
}
layer {
  name: "pool2"
  type: "Pooling"
  bottom: "conv2"
  top: "pool2"
  pooling_param {
    pool: MAX
    kernel_size: 3
    stride: 2
  }
}
layer {
  name: "norm2"
  type: "LRN"
  bottom: "pool2"
  top: "norm2"
  lrn_param {
    local_size: 5
    alpha: 0.0001
    beta: 0.75
  }
}
layer {
  name: "conv3"
  type: "Convolution"
  bottom: "norm2"
  top: "conv3"
  param {
    lr_mult: 1
    decay_mult: 1
  }
  param {
    lr_mult: 2
    decay_mult: 0
  }
  convolution_param {
    num_output: 384
    pad: 1
    kernel_size: 3
    weight_filler {
      type: "gaussian"
      std: 0.01
    }
    bias_filler {
      type: "constant"
      value: 0
    }
  }
}
layer {
  name: "relu3"
  type: "ReLU"
  bottom: "conv3"
  top: "conv3"
}
layer {
  name: "conv4"
  type: "Convolution"
  bottom: "conv3"
  top: "conv4"
  param {
    lr_mult: 1
    decay_mult: 1
  }
  param {
    lr_mult: 2
    decay_mult: 0
  }
  convolution_param {
    num_output: 384
    pad: 1
    kernel_size: 3
    group: 2
    weight_filler {
      type: "gaussian"
      std: 0.01
    }
    bias_filler {
      type: "constant"
      value: 1
    }
  }
}
layer {
  name: "relu4"
  type: "ReLU"
  bottom: "conv4"
  top: "conv4"
}
layer {
  name: "conv5"
  type: "Convolution"
  bottom: "conv4"
  top: "conv5"
  param {
    lr_mult: 1
    decay_mult: 1
  }
  param {
    lr_mult: 2
    decay_mult: 0
  }
  convolution_param {
    num_output: 256
    pad: 1
    kernel_size: 3
    group: 2
    weight_filler {
      type: "gaussian"
      std: 0.01
    }
    bias_filler {
      type: "constant"
      value: 1
    }
  }
}
layer {
  name: "relu5"
  type: "ReLU"
  bottom: "conv5"
  top: "conv5"
}
layer {
  name: "pool5"
  type: "Pooling"
  bottom: "conv5"
  top: "pool5"
  pooling_param {
    pool: MAX
    kernel_size: 3
    stride: 2
  }
}
layer {
  name: "fc6"
  type: "InnerProduct"
  bottom: "pool5"
  top: "fc6"
  param {
    lr_mult: 1
    decay_mult: 1
  }
  param {
    lr_mult: 2
    decay_mult: 0
  }
  inner_product_param {
    num_output: 4096
    weight_filler {
      type: "gaussian"
      std: 0.005
    }
    bias_filler {
      type: "constant"
      value: 1
    }
  }
}
layer {
  name: "relu6"
  type: "ReLU"
  bottom: "fc6"
  top: "fc6"
}
layer {
  name: "drop6"
  type: "Dropout"
  bottom: "fc6"
  top: "fc6"
  dropout_param {
    dropout_ratio: 0.5
  }
}
layer {
  name: "fc7"
  type: "InnerProduct"
  bottom: "fc6"
  top: "fc7"
  param {
    lr_mult: 1
    decay_mult: 1
  }
  param {
    lr_mult: 2
    decay_mult: 0
  }
  inner_product_param {
    num_output: 4096
    weight_filler {
      type: "gaussian"
      std: 0.005
    }
    bias_filler {
      type: "constant"
      value: 1
    }
  }
}
layer {
  name: "relu7"
  type: "ReLU"
  bottom: "fc7"
  top: "fc7"
}
layer {
  name: "drop7"
  type: "Dropout"
  bottom: "fc7"
  top: "fc7"
  dropout_param {
    dropout_ratio: 0.8
  }
}
layer {
  name: "fc8_stanford_cars"
  type: "InnerProduct"
  bottom: "fc7"
  top: "fc8_stanford_cars"
  param {
    lr_mult: 10
    decay_mult: 1
  }
  param {
    lr_mult: 20
    decay_mult: 0
  }
  inner_product_param {
    num_output: 196
    weight_filler {
      type: "gaussian"
      std: 0.01
    }
    bias_filler {
      type: "constant"
      value: 0
    }
  }
}
layer {
  name: "loss"
  type: "SoftmaxWithLoss"
  bottom: "fc8_stanford_cars"
  bottom: "label"
  top: "loss"
}
I0423 20:34:12.921083  8486 layer_factory.hpp:77] Creating layer data
I0423 20:34:12.921114  8486 net.cpp:84] Creating Layer data
I0423 20:34:12.921124  8486 net.cpp:380] data -> data
I0423 20:34:12.921146  8486 net.cpp:380] data -> label
I0423 20:34:12.921162  8486 data_transformer.cpp:25] Loading mean file from: data/ilsvrc12/imagenet_mean.binaryproto
I0423 20:34:12.923250  8486 image_data_layer.cpp:38] Opening file data/stanford_cars/train_02_8144pcs.txt
I0423 20:34:12.925787  8486 image_data_layer.cpp:63] A total of 8144 images.
I0423 20:34:12.950961  8486 image_data_layer.cpp:90] output data size: 50,3,227,227
I0423 20:34:13.003123  8486 net.cpp:122] Setting up data
I0423 20:34:13.003157  8486 net.cpp:129] Top shape: 50 3 227 227 (7729350)
I0423 20:34:13.003165  8486 net.cpp:129] Top shape: 50 (50)
I0423 20:34:13.003168  8486 net.cpp:137] Memory required for data: 30917600
I0423 20:34:13.003180  8486 layer_factory.hpp:77] Creating layer conv1
I0423 20:34:13.003204  8486 net.cpp:84] Creating Layer conv1
I0423 20:34:13.003213  8486 net.cpp:406] conv1 <- data
I0423 20:34:13.003227  8486 net.cpp:380] conv1 -> conv1
I0423 20:34:13.298399  8486 net.cpp:122] Setting up conv1
I0423 20:34:13.298437  8486 net.cpp:129] Top shape: 50 96 55 55 (14520000)
I0423 20:34:13.298444  8486 net.cpp:137] Memory required for data: 88997600
I0423 20:34:13.298482  8486 layer_factory.hpp:77] Creating layer relu1
I0423 20:34:13.298496  8486 net.cpp:84] Creating Layer relu1
I0423 20:34:13.298501  8486 net.cpp:406] relu1 <- conv1
I0423 20:34:13.298508  8486 net.cpp:367] relu1 -> conv1 (in-place)
I0423 20:34:13.298802  8486 net.cpp:122] Setting up relu1
I0423 20:34:13.298813  8486 net.cpp:129] Top shape: 50 96 55 55 (14520000)
I0423 20:34:13.298817  8486 net.cpp:137] Memory required for data: 147077600
I0423 20:34:13.298821  8486 layer_factory.hpp:77] Creating layer pool1
I0423 20:34:13.298828  8486 net.cpp:84] Creating Layer pool1
I0423 20:34:13.298832  8486 net.cpp:406] pool1 <- conv1
I0423 20:34:13.298848  8486 net.cpp:380] pool1 -> pool1
I0423 20:34:13.298918  8486 net.cpp:122] Setting up pool1
I0423 20:34:13.298948  8486 net.cpp:129] Top shape: 50 96 27 27 (3499200)
I0423 20:34:13.298952  8486 net.cpp:137] Memory required for data: 161074400
I0423 20:34:13.298956  8486 layer_factory.hpp:77] Creating layer norm1
I0423 20:34:13.298966  8486 net.cpp:84] Creating Layer norm1
I0423 20:34:13.298980  8486 net.cpp:406] norm1 <- pool1
I0423 20:34:13.298987  8486 net.cpp:380] norm1 -> norm1
I0423 20:34:13.299139  8486 net.cpp:122] Setting up norm1
I0423 20:34:13.299149  8486 net.cpp:129] Top shape: 50 96 27 27 (3499200)
I0423 20:34:13.299165  8486 net.cpp:137] Memory required for data: 175071200
I0423 20:34:13.299185  8486 layer_factory.hpp:77] Creating layer conv2
I0423 20:34:13.299197  8486 net.cpp:84] Creating Layer conv2
I0423 20:34:13.299202  8486 net.cpp:406] conv2 <- norm1
I0423 20:34:13.299209  8486 net.cpp:380] conv2 -> conv2
I0423 20:34:13.303769  8486 net.cpp:122] Setting up conv2
I0423 20:34:13.303793  8486 net.cpp:129] Top shape: 50 256 27 27 (9331200)
I0423 20:34:13.303798  8486 net.cpp:137] Memory required for data: 212396000
I0423 20:34:13.303812  8486 layer_factory.hpp:77] Creating layer relu2
I0423 20:34:13.303822  8486 net.cpp:84] Creating Layer relu2
I0423 20:34:13.303828  8486 net.cpp:406] relu2 <- conv2
I0423 20:34:13.303836  8486 net.cpp:367] relu2 -> conv2 (in-place)
I0423 20:34:13.304119  8486 net.cpp:122] Setting up relu2
I0423 20:34:13.304131  8486 net.cpp:129] Top shape: 50 256 27 27 (9331200)
I0423 20:34:13.304143  8486 net.cpp:137] Memory required for data: 249720800
I0423 20:34:13.304148  8486 layer_factory.hpp:77] Creating layer pool2
I0423 20:34:13.304157  8486 net.cpp:84] Creating Layer pool2
I0423 20:34:13.304160  8486 net.cpp:406] pool2 <- conv2
I0423 20:34:13.304167  8486 net.cpp:380] pool2 -> pool2
I0423 20:34:13.304211  8486 net.cpp:122] Setting up pool2
I0423 20:34:13.304219  8486 net.cpp:129] Top shape: 50 256 13 13 (2163200)
I0423 20:34:13.304232  8486 net.cpp:137] Memory required for data: 258373600
I0423 20:34:13.304237  8486 layer_factory.hpp:77] Creating layer norm2
I0423 20:34:13.304247  8486 net.cpp:84] Creating Layer norm2
I0423 20:34:13.304252  8486 net.cpp:406] norm2 <- pool2
I0423 20:34:13.304258  8486 net.cpp:380] norm2 -> norm2
I0423 20:34:13.304409  8486 net.cpp:122] Setting up norm2
I0423 20:34:13.304426  8486 net.cpp:129] Top shape: 50 256 13 13 (2163200)
I0423 20:34:13.304430  8486 net.cpp:137] Memory required for data: 267026400
I0423 20:34:13.304435  8486 layer_factory.hpp:77] Creating layer conv3
I0423 20:34:13.304446  8486 net.cpp:84] Creating Layer conv3
I0423 20:34:13.304451  8486 net.cpp:406] conv3 <- norm2
I0423 20:34:13.304457  8486 net.cpp:380] conv3 -> conv3
I0423 20:34:13.313575  8486 net.cpp:122] Setting up conv3
I0423 20:34:13.313607  8486 net.cpp:129] Top shape: 50 384 13 13 (3244800)
I0423 20:34:13.313611  8486 net.cpp:137] Memory required for data: 280005600
I0423 20:34:13.313626  8486 layer_factory.hpp:77] Creating layer relu3
I0423 20:34:13.313640  8486 net.cpp:84] Creating Layer relu3
I0423 20:34:13.313647  8486 net.cpp:406] relu3 <- conv3
I0423 20:34:13.313654  8486 net.cpp:367] relu3 -> conv3 (in-place)
I0423 20:34:13.313941  8486 net.cpp:122] Setting up relu3
I0423 20:34:13.313952  8486 net.cpp:129] Top shape: 50 384 13 13 (3244800)
I0423 20:34:13.313956  8486 net.cpp:137] Memory required for data: 292984800
I0423 20:34:13.313961  8486 layer_factory.hpp:77] Creating layer conv4
I0423 20:34:13.313974  8486 net.cpp:84] Creating Layer conv4
I0423 20:34:13.313979  8486 net.cpp:406] conv4 <- conv3
I0423 20:34:13.313988  8486 net.cpp:380] conv4 -> conv4
I0423 20:34:13.321799  8486 net.cpp:122] Setting up conv4
I0423 20:34:13.321833  8486 net.cpp:129] Top shape: 50 384 13 13 (3244800)
I0423 20:34:13.321841  8486 net.cpp:137] Memory required for data: 305964000
I0423 20:34:13.321859  8486 layer_factory.hpp:77] Creating layer relu4
I0423 20:34:13.321871  8486 net.cpp:84] Creating Layer relu4
I0423 20:34:13.321877  8486 net.cpp:406] relu4 <- conv4
I0423 20:34:13.321887  8486 net.cpp:367] relu4 -> conv4 (in-place)
I0423 20:34:13.322177  8486 net.cpp:122] Setting up relu4
I0423 20:34:13.322216  8486 net.cpp:129] Top shape: 50 384 13 13 (3244800)
I0423 20:34:13.322219  8486 net.cpp:137] Memory required for data: 318943200
I0423 20:34:13.322223  8486 layer_factory.hpp:77] Creating layer conv5
I0423 20:34:13.322245  8486 net.cpp:84] Creating Layer conv5
I0423 20:34:13.322250  8486 net.cpp:406] conv5 <- conv4
I0423 20:34:13.322275  8486 net.cpp:380] conv5 -> conv5
I0423 20:34:13.329089  8486 net.cpp:122] Setting up conv5
I0423 20:34:13.329115  8486 net.cpp:129] Top shape: 50 256 13 13 (2163200)
I0423 20:34:13.329120  8486 net.cpp:137] Memory required for data: 327596000
I0423 20:34:13.329133  8486 layer_factory.hpp:77] Creating layer relu5
I0423 20:34:13.329154  8486 net.cpp:84] Creating Layer relu5
I0423 20:34:13.329161  8486 net.cpp:406] relu5 <- conv5
I0423 20:34:13.329185  8486 net.cpp:367] relu5 -> conv5 (in-place)
I0423 20:34:13.329339  8486 net.cpp:122] Setting up relu5
I0423 20:34:13.329347  8486 net.cpp:129] Top shape: 50 256 13 13 (2163200)
I0423 20:34:13.329351  8486 net.cpp:137] Memory required for data: 336248800
I0423 20:34:13.329355  8486 layer_factory.hpp:77] Creating layer pool5
I0423 20:34:13.329361  8486 net.cpp:84] Creating Layer pool5
I0423 20:34:13.329365  8486 net.cpp:406] pool5 <- conv5
I0423 20:34:13.329382  8486 net.cpp:380] pool5 -> pool5
I0423 20:34:13.329432  8486 net.cpp:122] Setting up pool5
I0423 20:34:13.329440  8486 net.cpp:129] Top shape: 50 256 6 6 (460800)
I0423 20:34:13.329443  8486 net.cpp:137] Memory required for data: 338092000
I0423 20:34:13.329447  8486 layer_factory.hpp:77] Creating layer fc6
I0423 20:34:13.329466  8486 net.cpp:84] Creating Layer fc6
I0423 20:34:13.329471  8486 net.cpp:406] fc6 <- pool5
I0423 20:34:13.329478  8486 net.cpp:380] fc6 -> fc6
I0423 20:34:13.661527  8486 net.cpp:122] Setting up fc6
I0423 20:34:13.661561  8486 net.cpp:129] Top shape: 50 4096 (204800)
I0423 20:34:13.661566  8486 net.cpp:137] Memory required for data: 338911200
I0423 20:34:13.661587  8486 layer_factory.hpp:77] Creating layer relu6
I0423 20:34:13.661604  8486 net.cpp:84] Creating Layer relu6
I0423 20:34:13.661612  8486 net.cpp:406] relu6 <- fc6
I0423 20:34:13.661636  8486 net.cpp:367] relu6 -> fc6 (in-place)
I0423 20:34:13.662055  8486 net.cpp:122] Setting up relu6
I0423 20:34:13.662075  8486 net.cpp:129] Top shape: 50 4096 (204800)
I0423 20:34:13.662078  8486 net.cpp:137] Memory required for data: 339730400
I0423 20:34:13.662082  8486 layer_factory.hpp:77] Creating layer drop6
I0423 20:34:13.662099  8486 net.cpp:84] Creating Layer drop6
I0423 20:34:13.662104  8486 net.cpp:406] drop6 <- fc6
I0423 20:34:13.662112  8486 net.cpp:367] drop6 -> fc6 (in-place)
I0423 20:34:13.662159  8486 net.cpp:122] Setting up drop6
I0423 20:34:13.662176  8486 net.cpp:129] Top shape: 50 4096 (204800)
I0423 20:34:13.662189  8486 net.cpp:137] Memory required for data: 340549600
I0423 20:34:13.662192  8486 layer_factory.hpp:77] Creating layer fc7
I0423 20:34:13.662200  8486 net.cpp:84] Creating Layer fc7
I0423 20:34:13.662205  8486 net.cpp:406] fc7 <- fc6
I0423 20:34:13.662216  8486 net.cpp:380] fc7 -> fc7
I0423 20:34:13.811650  8486 net.cpp:122] Setting up fc7
I0423 20:34:13.811686  8486 net.cpp:129] Top shape: 50 4096 (204800)
I0423 20:34:13.811691  8486 net.cpp:137] Memory required for data: 341368800
I0423 20:34:13.811713  8486 layer_factory.hpp:77] Creating layer relu7
I0423 20:34:13.811725  8486 net.cpp:84] Creating Layer relu7
I0423 20:34:13.811731  8486 net.cpp:406] relu7 <- fc7
I0423 20:34:13.811741  8486 net.cpp:367] relu7 -> fc7 (in-place)
I0423 20:34:13.811946  8486 net.cpp:122] Setting up relu7
I0423 20:34:13.811957  8486 net.cpp:129] Top shape: 50 4096 (204800)
I0423 20:34:13.811975  8486 net.cpp:137] Memory required for data: 342188000
I0423 20:34:13.811981  8486 layer_factory.hpp:77] Creating layer drop7
I0423 20:34:13.811992  8486 net.cpp:84] Creating Layer drop7
I0423 20:34:13.811998  8486 net.cpp:406] drop7 <- fc7
I0423 20:34:13.812005  8486 net.cpp:367] drop7 -> fc7 (in-place)
I0423 20:34:13.812060  8486 net.cpp:122] Setting up drop7
I0423 20:34:13.812089  8486 net.cpp:129] Top shape: 50 4096 (204800)
I0423 20:34:13.812093  8486 net.cpp:137] Memory required for data: 343007200
I0423 20:34:13.812098  8486 layer_factory.hpp:77] Creating layer fc8_stanford_cars
I0423 20:34:13.812115  8486 net.cpp:84] Creating Layer fc8_stanford_cars
I0423 20:34:13.812120  8486 net.cpp:406] fc8_stanford_cars <- fc7
I0423 20:34:13.812135  8486 net.cpp:380] fc8_stanford_cars -> fc8_stanford_cars
I0423 20:34:13.819615  8486 net.cpp:122] Setting up fc8_stanford_cars
I0423 20:34:13.819645  8486 net.cpp:129] Top shape: 50 196 (9800)
I0423 20:34:13.819650  8486 net.cpp:137] Memory required for data: 343046400
I0423 20:34:13.819671  8486 layer_factory.hpp:77] Creating layer loss
I0423 20:34:13.819682  8486 net.cpp:84] Creating Layer loss
I0423 20:34:13.819689  8486 net.cpp:406] loss <- fc8_stanford_cars
I0423 20:34:13.819712  8486 net.cpp:406] loss <- label
I0423 20:34:13.819725  8486 net.cpp:380] loss -> loss
I0423 20:34:13.819743  8486 layer_factory.hpp:77] Creating layer loss
…
I0423 20:34:13.821097  8486 net.cpp:294] The NetState phase (1) differed from the phase (0) specified by a rule in layer data
I0423 20:34:13.821257  8486 net.cpp:51] Initializing net from parameters:
name: "StanfordCarsNet"
state {
  phase: TEST
}
layer {
  name: "data"
  type: "ImageData"
  top: "data"
  top: "label"
  include {
    phase: TEST
  }
  transform_param {
    mirror: false
    crop_size: 227
    mean_file: "data/ilsvrc12/imagenet_mean.binaryproto"
  }
  image_data_param {
    source: "data/stanford_cars/test_02_8041pcs.txt"
    batch_size: 50
    new_height: 256
    new_width: 256
  }
}
layer {
  name: "conv1"
  type: "Convolution"
  bottom: "data"
  top: "conv1"
  param {
    lr_mult: 1
    decay_mult: 1
  }
  param {
    lr_mult: 2
    decay_mult: 0
  }
  convolution_param {
    num_output: 96
    kernel_size: 11
    stride: 4
    weight_filler {
      type: "gaussian"
      std: 0.01
    }
    bias_filler {
      type: "constant"
      value: 0
    }
  }
}
layer {
  name: "relu1"
  type: "ReLU"
  bottom: "conv1"
  top: "conv1"
}
layer {
  name: "pool1"
  type: "Pooling"
  bottom: "conv1"
  top: "pool1"
  pooling_param {
    pool: MAX
    kernel_size: 3
    stride: 2
  }
}
layer {
  name: "norm1"
  type: "LRN"
  bottom: "pool1"
  top: "norm1"
  lrn_param {
    local_size: 5
    alpha: 0.0001
    beta: 0.75
  }
}
layer {
  name: "conv2"
  type: "Convolution"
  bottom: "norm1"
  top: "conv2"
  param {
    lr_mult: 1
    decay_mult: 1
  }
  param {
    lr_mult: 2
    decay_mult: 0
  }
  convolution_param {
    num_output: 256
    pad: 2
    kernel_size: 5
    group: 2
    weight_filler {
      type: "gaussian"
      std: 0.01
    }
    bias_filler {
      type: "constant"
      value: 1
    }
  }
}
layer {
  name: "relu2"
  type: "ReLU"
  bottom: "conv2"
  top: "conv2"
}
layer {
  name: "pool2"
  type: "Pooling"
  bottom: "conv2"
  top: "pool2"
  pooling_param {
    pool: MAX
    kernel_size: 3
    stride: 2
  }
}
layer {
  name: "norm2"
  type: "LRN"
  bottom: "pool2"
  top: "norm2"
  lrn_param {
    local_size: 5
    alpha: 0.0001
    beta: 0.75
  }
}
layer {
  name: "conv3"
  type: "Convolution"
  bottom: "norm2"
  top: "conv3"
  param {
    lr_mult: 1
    decay_mult: 1
  }
  param {
    lr_mult: 2
    decay_mult: 0
  }
  convolution_param {
    num_output: 384
    pad: 1
    kernel_size: 3
    weight_filler {
      type: "gaussian"
      std: 0.01
    }
    bias_filler {
      type: "constant"
      value: 0
    }
  }
}
layer {
  name: "relu3"
  type: "ReLU"
  bottom: "conv3"
  top: "conv3"
}
layer {
  name: "conv4"
  type: "Convolution"
  bottom: "conv3"
  top: "conv4"
  param {
    lr_mult: 1
    decay_mult: 1
  }
  param {
    lr_mult: 2
    decay_mult: 0
  }
  convolution_param {
    num_output: 384
    pad: 1
    kernel_size: 3
    group: 2
    weight_filler {
      type: "gaussian"
      std: 0.01
    }
    bias_filler {
      type: "constant"
      value: 1
    }
  }
}
layer {
  name: "relu4"
  type: "ReLU"
  bottom: "conv4"
  top: "conv4"
}
layer {
  name: "conv5"
  type: "Convolution"
  bottom: "conv4"
  top: "conv5"
  param {
    lr_mult: 1
    decay_mult: 1
  }
  param {
    lr_mult: 2
    decay_mult: 0
  }
  convolution_param {
    num_output: 256
    pad: 1
    kernel_size: 3
    group: 2
    weight_filler {
      type: "gaussian"
      std: 0.01
    }
    bias_filler {
      type: "constant"
      value: 1
    }
  }
}
layer {
  name: "relu5"
  type: "ReLU"
  bottom: "conv5"
  top: "conv5"
}
layer {
  name: "pool5"
  type: "Pooling"
  bottom: "conv5"
  top: "pool5"
  pooling_param {
    pool: MAX
    kernel_size: 3
    stride: 2
  }
}
layer {
  name: "fc6"
  type: "InnerProduct"
  bottom: "pool5"
  top: "fc6"
  param {
    lr_mult: 1
    decay_mult: 1
  }
  param {
    lr_mult: 2
    decay_mult: 0
  }
  inner_product_param {
    num_output: 4096
    weight_filler {
      type: "gaussian"
      std: 0.005
    }
    bias_filler {
      type: "constant"
      value: 1
    }
  }
}
layer {
  name: "relu6"
  type: "ReLU"
  bottom: "fc6"
  top: "fc6"
}
layer {
  name: "drop6"
  type: "Dropout"
  bottom: "fc6"
  top: "fc6"
  dropout_param {
    dropout_ratio: 0.5
  }
}
layer {
  name: "fc7"
  type: "InnerProduct"
  bottom: "fc6"
  top: "fc7"
  param {
    lr_mult: 1
    decay_mult: 1
  }
  param {
    lr_mult: 2
    decay_mult: 0
  }
  inner_product_param {
    num_output: 4096
    weight_filler {
      type: "gaussian"
      std: 0.005
    }
    bias_filler {
      type: "constant"
      value: 1
    }
  }
}
layer {
  name: "relu7"
  type: "ReLU"
  bottom: "fc7"
  top: "fc7"
}
layer {
  name: "drop7"
  type: "Dropout"
  bottom: "fc7"
  top: "fc7"
  dropout_param {
    dropout_ratio: 0.8
  }
}
layer {
  name: "fc8_stanford_cars"
  type: "InnerProduct"
  bottom: "fc7"
  top: "fc8_stanford_cars"
  param {
    lr_mult: 10
    decay_mult: 1
  }
  param {
    lr_mult: 20
    decay_mult: 0
  }
  inner_product_param {
    num_output: 196
    weight_filler {
      type: "gaussian"
      std: 0.01
    }
    bias_filler {
      type: "constant"
      value: 0
    }
  }
}
layer {
  name: "accuracy"
  type: "Accuracy"
  bottom: "fc8_stanford_cars"
  bottom: "label"
  top: "accuracy"
  include {
    phase: TEST
  }
}
layer {
  name: "loss"
  type: "SoftmaxWithLoss"
  bottom: "fc8_stanford_cars"
  bottom: "label"
  top: "loss"
}
I0423 20:34:13.821463  8486 layer_factory.hpp:77] Creating layer data
I0423 20:34:13.821480  8486 net.cpp:84] Creating Layer data
I0423 20:34:13.821487  8486 net.cpp:380] data -> data
I0423 20:34:13.821496  8486 net.cpp:380] data -> label
I0423 20:34:13.821506  8486 data_transformer.cpp:25] Loading mean file from: data/ilsvrc12/imagenet_mean.binaryproto
I0423 20:34:13.822980  8486 image_data_layer.cpp:38] Opening file data/stanford_cars/test_02_8041pcs.txt
I0423 20:34:13.825173  8486 image_data_layer.cpp:63] A total of 8041 images.
I0423 20:34:13.834203  8486 image_data_layer.cpp:90] output data size: 50,3,227,227
I0423 20:34:13.883987  8486 net.cpp:122] Setting up data
I0423 20:34:13.884024  8486 net.cpp:129] Top shape: 50 3 227 227 (7729350)
I0423 20:34:13.884035  8486 net.cpp:129] Top shape: 50 (50)
I0423 20:34:13.884040  8486 net.cpp:137] Memory required for data: 30917600
I0423 20:34:13.884049  8486 layer_factory.hpp:77] Creating layer label_data_1_split
I0423 20:34:13.884063  8486 net.cpp:84] Creating Layer label_data_1_split
I0423 20:34:13.884070  8486 net.cpp:406] label_data_1_split <- label
I0423 20:34:13.884078  8486 net.cpp:380] label_data_1_split -> label_data_1_split_0
I0423 20:34:13.884091  8486 net.cpp:380] label_data_1_split -> label_data_1_split_1
I0423 20:34:13.884166  8486 net.cpp:122] Setting up label_data_1_split
I0423 20:34:13.884174  8486 net.cpp:129] Top shape: 50 (50)
I0423 20:34:13.884187  8486 net.cpp:129] Top shape: 50 (50)
I0423 20:34:13.884191  8486 net.cpp:137] Memory required for data: 30918000
I0423 20:34:13.884196  8486 layer_factory.hpp:77] Creating layer conv1
I0423 20:34:13.884212  8486 net.cpp:84] Creating Layer conv1
I0423 20:34:13.884217  8486 net.cpp:406] conv1 <- data
I0423 20:34:13.884224  8486 net.cpp:380] conv1 -> conv1
I0423 20:34:13.888095  8486 net.cpp:122] Setting up conv1
I0423 20:34:13.888120  8486 net.cpp:129] Top shape: 50 96 55 55 (14520000)
I0423 20:34:13.888125  8486 net.cpp:137] Memory required for data: 88998000
I0423 20:34:13.888140  8486 layer_factory.hpp:77] Creating layer relu1
I0423 20:34:13.888149  8486 net.cpp:84] Creating Layer relu1
I0423 20:34:13.888162  8486 net.cpp:406] relu1 <- conv1
I0423 20:34:13.888176  8486 net.cpp:367] relu1 -> conv1 (in-place)
I0423 20:34:13.888497  8486 net.cpp:122] Setting up relu1
I0423 20:34:13.888516  8486 net.cpp:129] Top shape: 50 96 55 55 (14520000)
I0423 20:34:13.888520  8486 net.cpp:137] Memory required for data: 147078000
I0423 20:34:13.888525  8486 layer_factory.hpp:77] Creating layer pool1
I0423 20:34:13.888536  8486 net.cpp:84] Creating Layer pool1
I0423 20:34:13.888541  8486 net.cpp:406] pool1 <- conv1
I0423 20:34:13.888550  8486 net.cpp:380] pool1 -> pool1
I0423 20:34:13.888600  8486 net.cpp:122] Setting up pool1
I0423 20:34:13.888608  8486 net.cpp:129] Top shape: 50 96 27 27 (3499200)
I0423 20:34:13.888620  8486 net.cpp:137] Memory required for data: 161074800
I0423 20:34:13.888624  8486 layer_factory.hpp:77] Creating layer norm1
I0423 20:34:13.888633  8486 net.cpp:84] Creating Layer norm1
I0423 20:34:13.888638  8486 net.cpp:406] norm1 <- pool1
I0423 20:34:13.888644  8486 net.cpp:380] norm1 -> norm1
I0423 20:34:13.888808  8486 net.cpp:122] Setting up norm1
I0423 20:34:13.888826  8486 net.cpp:129] Top shape: 50 96 27 27 (3499200)
I0423 20:34:13.888830  8486 net.cpp:137] Memory required for data: 175071600
I0423 20:34:13.888834  8486 layer_factory.hpp:77] Creating layer conv2
I0423 20:34:13.888846  8486 net.cpp:84] Creating Layer conv2
I0423 20:34:13.888852  8486 net.cpp:406] conv2 <- norm1
I0423 20:34:13.888888  8486 net.cpp:380] conv2 -> conv2
I0423 20:34:13.893482  8486 net.cpp:122] Setting up conv2
I0423 20:34:13.893512  8486 net.cpp:129] Top shape: 50 256 27 27 (9331200)
I0423 20:34:13.893515  8486 net.cpp:137] Memory required for data: 212396400
I0423 20:34:13.893538  8486 layer_factory.hpp:77] Creating layer relu2
I0423 20:34:13.893548  8486 net.cpp:84] Creating Layer relu2
I0423 20:34:13.893570  8486 net.cpp:406] relu2 <- conv2
I0423 20:34:13.893577  8486 net.cpp:367] relu2 -> conv2 (in-place)
I0423 20:34:13.893864  8486 net.cpp:122] Setting up relu2
I0423 20:34:13.893877  8486 net.cpp:129] Top shape: 50 256 27 27 (9331200)
I0423 20:34:13.893892  8486 net.cpp:137] Memory required for data: 249721200
I0423 20:34:13.893895  8486 layer_factory.hpp:77] Creating layer pool2
I0423 20:34:13.893905  8486 net.cpp:84] Creating Layer pool2
I0423 20:34:13.893911  8486 net.cpp:406] pool2 <- conv2
I0423 20:34:13.893918  8486 net.cpp:380] pool2 -> pool2
I0423 20:34:13.893968  8486 net.cpp:122] Setting up pool2
I0423 20:34:13.893976  8486 net.cpp:129] Top shape: 50 256 13 13 (2163200)
I0423 20:34:13.893990  8486 net.cpp:137] Memory required for data: 258374000
I0423 20:34:13.893993  8486 layer_factory.hpp:77] Creating layer norm2
I0423 20:34:13.894002  8486 net.cpp:84] Creating Layer norm2
I0423 20:34:13.894007  8486 net.cpp:406] norm2 <- pool2
I0423 20:34:13.894014  8486 net.cpp:380] norm2 -> norm2
I0423 20:34:13.894316  8486 net.cpp:122] Setting up norm2
I0423 20:34:13.894327  8486 net.cpp:129] Top shape: 50 256 13 13 (2163200)
I0423 20:34:13.894340  8486 net.cpp:137] Memory required for data: 267026800
I0423 20:34:13.894345  8486 layer_factory.hpp:77] Creating layer conv3
I0423 20:34:13.894356  8486 net.cpp:84] Creating Layer conv3
I0423 20:34:13.894361  8486 net.cpp:406] conv3 <- norm2
I0423 20:34:13.894368  8486 net.cpp:380] conv3 -> conv3
I0423 20:34:13.903744  8486 net.cpp:122] Setting up conv3
I0423 20:34:13.903780  8486 net.cpp:129] Top shape: 50 384 13 13 (3244800)
I0423 20:34:13.903787  8486 net.cpp:137] Memory required for data: 280006000
I0423 20:34:13.903817  8486 layer_factory.hpp:77] Creating layer relu3
I0423 20:34:13.903830  8486 net.cpp:84] Creating Layer relu3
I0423 20:34:13.903836  8486 net.cpp:406] relu3 <- conv3
I0423 20:34:13.903846  8486 net.cpp:367] relu3 -> conv3 (in-place)
I0423 20:34:13.903988  8486 net.cpp:122] Setting up relu3
I0423 20:34:13.904016  8486 net.cpp:129] Top shape: 50 384 13 13 (3244800)
I0423 20:34:13.904019  8486 net.cpp:137] Memory required for data: 292985200
I0423 20:34:13.904023  8486 layer_factory.hpp:77] Creating layer conv4
I0423 20:34:13.904044  8486 net.cpp:84] Creating Layer conv4
I0423 20:34:13.904050  8486 net.cpp:406] conv4 <- conv3
I0423 20:34:13.904059  8486 net.cpp:380] conv4 -> conv4
I0423 20:34:13.912251  8486 net.cpp:122] Setting up conv4
I0423 20:34:13.912286  8486 net.cpp:129] Top shape: 50 384 13 13 (3244800)
I0423 20:34:13.912292  8486 net.cpp:137] Memory required for data: 305964400
I0423 20:34:13.912304  8486 layer_factory.hpp:77] Creating layer relu4
I0423 20:34:13.912315  8486 net.cpp:84] Creating Layer relu4
I0423 20:34:13.912322  8486 net.cpp:406] relu4 <- conv4
I0423 20:34:13.912329  8486 net.cpp:367] relu4 -> conv4 (in-place)
I0423 20:34:13.913276  8486 net.cpp:122] Setting up relu4
I0423 20:34:13.913308  8486 net.cpp:129] Top shape: 50 384 13 13 (3244800)
I0423 20:34:13.913313  8486 net.cpp:137] Memory required for data: 318943600
I0423 20:34:13.913319  8486 layer_factory.hpp:77] Creating layer conv5
I0423 20:34:13.913333  8486 net.cpp:84] Creating Layer conv5
I0423 20:34:13.913339  8486 net.cpp:406] conv5 <- conv4
I0423 20:34:13.913348  8486 net.cpp:380] conv5 -> conv5
I0423 20:34:13.919469  8486 net.cpp:122] Setting up conv5
I0423 20:34:13.919504  8486 net.cpp:129] Top shape: 50 256 13 13 (2163200)
I0423 20:34:13.919510  8486 net.cpp:137] Memory required for data: 327596400
I0423 20:34:13.919528  8486 layer_factory.hpp:77] Creating layer relu5
I0423 20:34:13.919543  8486 net.cpp:84] Creating Layer relu5
I0423 20:34:13.919549  8486 net.cpp:406] relu5 <- conv5
I0423 20:34:13.919580  8486 net.cpp:367] relu5 -> conv5 (in-place)
I0423 20:34:13.919728  8486 net.cpp:122] Setting up relu5
I0423 20:34:13.919746  8486 net.cpp:129] Top shape: 50 256 13 13 (2163200)
I0423 20:34:13.919750  8486 net.cpp:137] Memory required for data: 336249200
I0423 20:34:13.919755  8486 layer_factory.hpp:77] Creating layer pool5
I0423 20:34:13.919770  8486 net.cpp:84] Creating Layer pool5
I0423 20:34:13.919777  8486 net.cpp:406] pool5 <- conv5
I0423 20:34:13.919785  8486 net.cpp:380] pool5 -> pool5
I0423 20:34:13.919842  8486 net.cpp:122] Setting up pool5
I0423 20:34:13.919859  8486 net.cpp:129] Top shape: 50 256 6 6 (460800)
I0423 20:34:13.919863  8486 net.cpp:137] Memory required for data: 338092400
I0423 20:34:13.919867  8486 layer_factory.hpp:77] Creating layer fc6
I0423 20:34:13.919878  8486 net.cpp:84] Creating Layer fc6
I0423 20:34:13.919883  8486 net.cpp:406] fc6 <- pool5
I0423 20:34:13.919890  8486 net.cpp:380] fc6 -> fc6
I0423 20:34:14.252712  8486 net.cpp:122] Setting up fc6
I0423 20:34:14.252755  8486 net.cpp:129] Top shape: 50 4096 (204800)
I0423 20:34:14.252763  8486 net.cpp:137] Memory required for data: 338911600
I0423 20:34:14.252789  8486 layer_factory.hpp:77] Creating layer relu6
I0423 20:34:14.252820  8486 net.cpp:84] Creating Layer relu6
I0423 20:34:14.252826  8486 net.cpp:406] relu6 <- fc6
I0423 20:34:14.252838  8486 net.cpp:367] relu6 -> fc6 (in-place)
I0423 20:34:14.254714  8486 net.cpp:122] Setting up relu6
I0423 20:34:14.254724  8486 net.cpp:129] Top shape: 50 4096 (204800)
I0423 20:34:14.254729  8486 net.cpp:137] Memory required for data: 339730800
I0423 20:34:14.254734  8486 layer_factory.hpp:77] Creating layer drop6
I0423 20:34:14.254740  8486 net.cpp:84] Creating Layer drop6
I0423 20:34:14.254746  8486 net.cpp:406] drop6 <- fc6
I0423 20:34:14.254763  8486 net.cpp:367] drop6 -> fc6 (in-place)
I0423 20:34:14.254798  8486 net.cpp:122] Setting up drop6
I0423 20:34:14.254814  8486 net.cpp:129] Top shape: 50 4096 (204800)
I0423 20:34:14.254827  8486 net.cpp:137] Memory required for data: 340550000
I0423 20:34:14.254838  8486 layer_factory.hpp:77] Creating layer fc7
I0423 20:34:14.254845  8486 net.cpp:84] Creating Layer fc7
I0423 20:34:14.254858  8486 net.cpp:406] fc7 <- fc6
I0423 20:34:14.254868  8486 net.cpp:380] fc7 -> fc7
I0423 20:34:14.403859  8486 net.cpp:122] Setting up fc7
I0423 20:34:14.403903  8486 net.cpp:129] Top shape: 50 4096 (204800)
I0423 20:34:14.403910  8486 net.cpp:137] Memory required for data: 341369200
I0423 20:34:14.403937  8486 layer_factory.hpp:77] Creating layer relu7
I0423 20:34:14.403951  8486 net.cpp:84] Creating Layer relu7
I0423 20:34:14.403970  8486 net.cpp:406] relu7 <- fc7
I0423 20:34:14.403980  8486 net.cpp:367] relu7 -> fc7 (in-place)
I0423 20:34:14.404462  8486 net.cpp:122] Setting up relu7
I0423 20:34:14.404482  8486 net.cpp:129] Top shape: 50 4096 (204800)
I0423 20:34:14.404486  8486 net.cpp:137] Memory required for data: 342188400
I0423 20:34:14.404491  8486 layer_factory.hpp:77] Creating layer drop7
I0423 20:34:14.404508  8486 net.cpp:84] Creating Layer drop7
I0423 20:34:14.404513  8486 net.cpp:406] drop7 <- fc7
I0423 20:34:14.404521  8486 net.cpp:367] drop7 -> fc7 (in-place)
I0423 20:34:14.404561  8486 net.cpp:122] Setting up drop7
I0423 20:34:14.404579  8486 net.cpp:129] Top shape: 50 4096 (204800)
I0423 20:34:14.404582  8486 net.cpp:137] Memory required for data: 343007600
I0423 20:34:14.404587  8486 layer_factory.hpp:77] Creating layer fc8_stanford_cars
I0423 20:34:14.404613  8486 net.cpp:84] Creating Layer fc8_stanford_cars
I0423 20:34:14.404625  8486 net.cpp:406] fc8_stanford_cars <- fc7
I0423 20:34:14.404641  8486 net.cpp:380] fc8_stanford_cars -> fc8_stanford_cars
I0423 20:34:14.412075  8486 net.cpp:122] Setting up fc8_stanford_cars
I0423 20:34:14.412107  8486 net.cpp:129] Top shape: 50 196 (9800)
I0423 20:34:14.412112  8486 net.cpp:137] Memory required for data: 343046800
I0423 20:34:14.412133  8486 layer_factory.hpp:77] Creating layer fc8_stanford_cars_fc8_stanford_cars_0_split
I0423 20:34:14.412145  8486 net.cpp:84] Creating Layer fc8_stanford_cars_fc8_stanford_cars_0_split
I0423 20:34:14.412170  8486 net.cpp:406] fc8_stanford_cars_fc8_stanford_cars_0_split <- fc8_stanford_cars
I0423 20:34:14.412181  8486 net.cpp:380] fc8_stanford_cars_fc8_stanford_cars_0_split -> fc8_stanford_cars_fc8_stanford_cars_0_split_0
I0423 20:34:14.412194  8486 net.cpp:380] fc8_stanford_cars_fc8_stanford_cars_0_split -> fc8_stanford_cars_fc8_stanford_cars_0_split_1
I0423 20:34:14.412250  8486 net.cpp:122] Setting up fc8_stanford_cars_fc8_stanford_cars_0_split
I0423 20:34:14.412257  8486 net.cpp:129] Top shape: 50 196 (9800)
I0423 20:34:14.412271  8486 net.cpp:129] Top shape: 50 196 (9800)
I0423 20:34:14.412276  8486 net.cpp:137] Memory required for data: 343125200
I0423 20:34:14.412281  8486 layer_factory.hpp:77] Creating layer accuracy
I0423 20:34:14.412289  8486 net.cpp:84] Creating Layer accuracy
I0423 20:34:14.412295  8486 net.cpp:406] accuracy <- fc8_stanford_cars_fc8_stanford_cars_0_split_0
I0423 20:34:14.412302  8486 net.cpp:406] accuracy <- label_data_1_split_0
…
